_ESR/Saved_models_fold_1_validation/Model_ANN_weights_0_best_norm_windowed.tflite (tflite, 575328 bytes, 8 tensors)

ANN_1/Hiden_1/BiasAdd/ReadVariableOp/resource f4 [375]
-0.011274515 -0.029430488 0.007435872 -0.013348267 0.00056755665 0.028396828 0.004085518 -0.0027993964
-0.0035352525 0.01575051 0.009570934 0.012255858 0.031158447 -0.01551444 0.016724383 -0.00022517898
-0.0045919865 0.018837268 -0.011742141 0.0024611554 -0.019094147 0.010716394 -0.004275138 -0.0019231513
0.0072547817 -0.0038226538 -0.014715151 -0.004138125 -0.011501423 0.008300487 0.023972739 -0.007126957
-0.0006652943 0.0004913748 -0.0003139925 0.0012316989 0.013779455 0.006003469 -0.022304198 -0.019004343
-0.0018786569 -0.0057344735 -0.013529856 0.002372733 0.008458602 0.0036707565 -0.010527875 0.007483755
-0.016339943 -0.01071214 -0.026199408 -0.011948158 0.006355456 0.021108443 -0.001031344 -0.013281943
0.017222337 0.01131633 0.0011313151 -0.0065045734 0.003916291 0.021625705 -0.00013208875 0.0065805493
0.00193453 -0.010438492 -0.004755589 -0.007687803 -0.008965357 -0.002892908 0.007960313 -0.012456831
-0.011538896 -0.013002622 0.010406412 -0.008592663 -0.0011864284 -0.015589958 -0.00946945 0.0038949829
0.014455031 -0.004989171 -0.010989223 -0.020937597 -0.0049791285 0.001849809 -0.017389206 -0.01112057
-0.009794687 0.01657527 -0.006904264 0.007800641 -0.0010897301 -0.015714215 0.0036940374 -0.011576749
-0.01772552 0.0063217008 0.009453817 0.011261547 -0.012813934 -0.008786009 0.0058935685 0.024245804
0.005217518 0.0050622323 -0.0052174362 -0.0012208092 0.00019734686 0.022541268 -0.007825634 0.0055374447
0.015366558 -0.0071660355 -0.024690986 -0.016224282 -0.022201594 0.014344075 0.015191409 -0.006628296
-0.008312995 0.020751238 -0.003511875 0.012612938 0.0015255576 -0.01045287 -0.0003881246 0.022556433
0.014090134 0.011521984 -0.017004475 -0.0069385665 0.018698508 0.002280882 -0.025675913 0.01068114
-0.0026923288 0.013014045 0.0021463665 0.00031251626 -0.02065579 0.015375743 -0.0015698958 0.0005194076
0.0074609816 0.0027714863 -0.01521628 -0.008391178 -0.0047041955 0.01173008 0.0002707386 0.03623883
-0.018094372 0.019133054 0.017271644 0.0004092174 0.0073665055 0.011353329 -0.011499723 0.00059865264
0.012894067 -0.018753534 0.022897197 0.009982869 0.006681021 0.02140334 -0.0039938455 -0.0077527706
0.014080336 -0.0031754505 -0.017509187 -0.005147569 0.015607461 -0.012978676 -0.004895151 0.0010955242
-0.009996867 -0.018607065 -0.0021368559 -0.007648431 0.012159503 -0.016171785 -0.0030361142 0.005846925
-0.007003115 0.007953682 -0.0043568346 -0.019460352 0.008390658 0.02203115 0.0026170623 0.004200342
0.018739732 0.0022814928 -0.022159861 0.008375792 -0.004782834 -0.010501835 0.009639762 -0.021475378
0.00089373544 -0.0077954726 -0.011528717 -0.009099569 -0.015689638 0.0052151685 -0.0017941272 -0.01398358
-0.0055841473 0.0016325425 -0.016222816 0.023917206 -0.009136256 -0.018145273 -0.009999747 0.009084965
-0.015982406 0.0044040172 -0.014490751 -0.008611306 0.007455071 0.0070961514 0.013944134 -0.013616947
-0.01930537 -0.03136828 -0.0074490416 0.018320957 -0.009940123 0.0022877178 -0.02646502 -0.007938749
-0.0059505454 -0.016131582 -0.0037447813 0.0052331337 0.00010394175 -0.016374337 -0.008465337 -0.019891974
-0.028858969 0.009045833 0.013358901 0.0138752265 0.0022374797 -0.017361952 -4.4570046e-05 0.0031406533
-0.013160845 0.016101537 0.010740356 -0.005207338 -0.011541102 0.012321572 -0.0061620637 -0.019123545
00000000: beb8 38bc 3518 f1bc 9ea8 f33b b1b2 5abc
00000010: 15c8 143a 77a0 e83c cfdf 853b 1476 37bb
00000020: b2af 67bb 3707 813c 68cf 1c3c cbcc 483c
00000030: 0040 ff3c 4730 7ebc 9301 893c 061e 6cb9
00000040: 6078 96bb 9d50 9a3c 1c62 40bc 564b 213b
00000050: 546b 9cbc d093 2f3c 7516 8cbb 4012 fcba
00000060: 85b9 ed3b 7d85 7abb d117 71bc 1c99 87bb
00000070: 7770 3cbc c4fe 073c 7a62 c43c 4089 e9bb
00000080: 2567 2eba 9bcf 003a 5c9f a4b9 f570 a13a
00000090: 39c3 613c c0b8 c43b 4bb7 b6bc ffae 9bbc
000000a0: 443d f6ba 40e8 bbbb 54ac 5dbc db7f 1b3b
000000b0: f395 0a3c 1391 703b 1c7d 2cbc 493a f53b
000000c0: 58db 85bc f981 2fbc 24a0 d6bc 35c2 43bc
000000d0: 6e41 d03b 9deb ac3c 2a2e 87ba 829c 59bc
000000e0: dc15 8d3c 2168 393c a348 943a 5124 d5bb
000000f0: 3b54 803b 6428 b13c 4e81 0ab9 a6a1 d73b
00000100: 0e90 fd3a 3506 2bbc c6d4 9bbb f7e9 fbbb
00000110: 6fe3 12bc f196 3dbb f96b 023c bc17 4cbc
00000120: a30d 3dbc f308 55bc a87f 2a3c 3ec8 0cbc
00000130: ee81 9bba 066d 7fbc c125 1bbc f842 7f3b
00000140: cbd4 6c3c 337c a3bb 240c 34bc 5385 abbc
00000150: f527 a3bb 4a75 f23a cf73 8ebc 0d33 36bc
00000160: e579 20bc dcc8 873c 2a3d e2bb 859c ff3b
00000170: 46d5 8eba 19bb 80bc aa17 723b 68ac 3dbc
00000180: 1c35 91bc 4526 cf3b 2fe4 1a3c 5a82 383c
00000190: 89f1 51bc 31f3 0fbc d61e c13b 239f c63c
000001a0: b7f7 aa3b 15e1 a53b 07f7 aabb 8f03 a0ba
000001b0: e5ee 4e39 77a8 b83c 1737 00bc 7473 b53b
000001c0: 04c4 7b3c 10d1 eabb c044 cabc c9e8 84bc
000001d0: 1ee0 b5bc 6903 6b3c 63e5 783c 2d32 d9bb
000001e0: 3a33 08bc 80fe a93c 7c27 66bb 7fa6 4e3c
000001f0: 38f5 c73a 8442 2bbc 347d cbb9 45c8 b83c
00000200: 4eda 663c b4c6 3c3c f84c 8bbc ea5c e3bb
00000210: 9d2d 993c da7a 153b 4b56 d2bc f3ff 2e3c
00000220: c871 30bb dc38 553c 0eaa 0c3b 39d9 a339
00000230: 5536 a9bc 8aea 7b3c f6c4 cdba db28 083a
00000240: 407b f43b d3a1 353b b44d 79bc 277b 09bc
00000250: a725 9abb 852f 403c ebf1 8d39 2b6f 143d
00000260: a63a 94bc ecbc 9c3c 437d 8d3c 3b8c d639
00000270: ba62 f13b 5003 3a3c 5669 3cbc e6ee 1c3a
00000280: a341 533c 03a1 99bc e792 bb3c 308f 233c
00000290: 77ec da3b 0f56 af3c cede 82bb f40a febb
000002a0: 36b1 663c 381b 50bb 6d6f 8fbc f0ac a8bb
000002b0: 70b6 7f3c 83a4 54bc 8167 a0bb b197 8f3a
000002c0: e6c9 23bc d86d 98bc 7e0a 0cbb b19f fabb
000002d0: a738 473c b17a 84bc 8bf9 46bb 9097 bf3b
000002e0: 637a e5bb 2950 023c c7c3 8ebb 516b 9fbc
000002f0: f878 093c ac7a b43c 0583 2b3b 06a3 893b
00000300: 1184 993c 1985 153b 9988 b5bc 9e3a 093c
00000310: 52b9 9cbb e30f 2cbc 18f0 1d3c 22ed afbc
00000320: 9249 6a3a 2a71 ffbb f2e2 3cbc 5c16 15bc
00000330: 8e87 80bc 01e4 aa3b eb28 ebba 631b 65bc
00000340: 39fb b6bb 09fb d53a b6e5 84bc 04ee c33c
00000350: 3cb0 15bc 65a5 94bc fbd5 23bc 1bd9 143c
00000360: 89ed 82bc 934f 903b 9d6a 6dbc 6f16 0dbc
00000370: ab49 f43b d586 e83b f075 643c 9e19 5fbc
00000380: 4c26 9ebc 077c 00bd 1717 f4bb d515 963c
00000390: e6db 22bc 89ed 153b 2bcd d8bc 8711 02bc
000003a0: cbfc c2bb 6126 84bc 016b 75bb b57a ab3b
000003b0: 4dfb d938 7923 86bc 32b2 0abc 7ef4 a2bc
000003c0: a569 ecbc f934 143c 4bdf 5a3c eb54 633c
000003d0: aea2 123b a73a 8ebc b9f0 3ab8 6bd3 4d3b
000003e0: 96a0 57bc 5fe7 833c 51f8 2f3c 51a2 aabb
000003f0: e416 3dbc 6be0 493c 23eb c9bb fba8 9cbc

ANN_1/Hiden_2/BiasAdd/ReadVariableOp/resource f4 [750]
0.041505545 -0.008371037 0.039142996 0.05454724 0.05076141 0.043391574 0.006355413 -0.0005401043
0.07211565 0.037097838 0.0077963755 -0.026257668 0.065060645 0.010471922 0.039660793 0.067127116
-0.0005061083 0.050643243 0.054546304 0.037963998 -0.0070984955 0.025627267 0.062127165 0.055861335
-0.015245948 0.034548756 0.0069748145 0.019815195 0.025027301 0.0020070965 0.05605075 0.0038744945
0.03616119 0.048886266 -0.010797289 0.0061440184 0.041083563 0.016010765 0.0271297 0.035726026
0.0497409 0.037090305 0.052382853 0.032533202 0.047592293 -0.013440184 0.0168222 0.061289404
0.06795915 0.044898666 0.016148536 0.017557763 0.012626345 0.040086403 0.041499093 0.021212466
0.043323223 0.036551144 0.06403745 0.041141387 0.05862069 0.030130755 0.03915286 0.01491143
-0.009555441 0.029509539 0.07691202 0.011803938 0.009726596 0.01432849 0.021437936 0.0195993
0.061086945 0.024192367 0.015315114 0.0276366 -0.005078325 0.038034797 0.026018731 0.051060256
0.056485865 0.044686686 0.00017634289 0.0032197074 0.02892159 0.09283148 0.032038614 0.008917805
0.011480788 0.045384172 0.043832082 0.020962605 0.063699715 0.07440299 0.05163014 0.07489286
0.045011766 0.006619589 0.028480733 0.053347584 0.00966411 0.038722526 -0.00042641844 0.03233016
0.042568672 0.032662638 -0.0035927591 0.035867058 0.039320793 0.05443404 0.038706318 0.029570065
0.0057304795 -0.006060449 -0.0054414878 0.03608136 0.06771387 0.060698822 0.036735266 -0.01003486
0.06806678 0.017037988 0.025294293 0.024042893 0.0027101522 0.05197169 0.06345285 0.0072728735
0.07737976 0.056003027 0.043724358 0.03226345 0.021814121 -0.017794302 0.03255026 0.007096477
-0.004373106 0.05786643 0.020753657 0.030400105 0.0074586226 0.053239204 0.054353897 0.037901476
0.023165515 0.031497266 0.013715695 0.041565772 0.06988291 0.005739641 0.078777395 0.0047895247
0.02843872 0.027882375 0.04439726 0.007882754 0.017998533 0.065191336 0.020446757 -0.010903689
0.017438201 0.034409046 0.037491433 0.03881739 0.002922095 -0.00492591 0.055470824 0.06969308
0.027014768 0.0042434935 0.054066084 0.03512835 0.016351936 0.032291047 0.034015145 0.04557053
0.049361818 0.018668251 0.050857726 0.04055457 0.066268176 0.06726253 0.036185157 0.044255186
0.013850479 0.0075851195 0.04407799 0.059308752 0.053583667 0.04143319 0.03317585 0.027188936
0.040040202 0.034207758 0.023098743 0.04335251 0.024022143 0.019891419 0.05761721 0.07540756
0.022622408 0.033163533 0.002394925 0.025167337 0.029139515 0.033793353 0.052196905 0.033937473
0.060802788 0.012193207 0.07156315 0.071904 0.016283343 0.04657846 0.02079181 0.009659873
0.05902209 0.046969518 0.032305174 0.059182774 0.044362016 0.04663166 0.019157501 0.039685465
0.058582354 0.028739266 0.050419684 0.033684652 0.060228378 0.06421298 0.030897591 0.06768583
0.053176656 0.035744064 0.03624172 0.043808736 0.009920915 -0.012631058 0.04085031 -0.0009536448
-0.0015634336 0.043755017 0.08243793 0.030162549 0.050737847 0.029126156 0.04790046 0.0072750286
-0.0018513327 0.03543253 0.046435546 0.039594177 0.020732649 0.03917655 0.023557106 0.02231003
00000000: b801 2a3d ad26 09bc 6854 203d ed6c 5f3d
00000010: 32eb 4f3d 5dbb 313d 1141 d03b c995 0dba
00000020: 5fb1 933d e7f3 173d bd78 ff3b 521a d7bc
00000030: 843e 853d 6d92 2b3c 5b73 223d f179 893d
00000040: 5aac 04ba 4a6f 4f3d f26b 5f3d 2380 1b3d
00000050: 7f9a e8bb 46f0 d13c 0e79 7e3d dbce 643d
00000060: 24ca 79bc ff82 0d3d fc8c e43b 7a53 a23c
00000070: 0e06 cd3c 7e89 033b 7995 653d 3beb 7d3b
00000080: c21d 143d f73c 483d 1de7 30bc c353 c93b
00000090: 3d47 283d 0229 833c 1b3f de3c 7455 123d
000000a0: 1dbd 4b3d 01ec 173d 678f 563d 8941 053d
000000b0: 23f0 423d 3834 5cbc b6ce 893c 990a 7b3d
000000c0: 2b2e 8b3d aae7 373d ef49 843c 4cd5 8f3c
000000d0: bbde 4e3c a431 243d f4fa 293d c4c5 ad3c
000000e0: b173 313d a7b6 153d 1126 833d df83 283d
000000f0: 401c 703d c6d4 f63c c05e 203d 124f 743c
00000100: 6d8e 1cbc fdbd f13c 0d84 9d3d 4e65 413c
00000110: 4d5c 1f3c 0bc2 6a3c 9c9e af3c b68e a03c
00000120: 4e36 7a3d 122f c63c 3eec 7a3c 2766 e23c
00000130: 1468 a6bb 60ca 1b3d 3c25 d53c 8f24 513d
00000140: b95d 673d 6309 373d afe8 3839 ba01 533b
00000150: f8ec ec3c 6e1e be3d ec3a 033d fc1b 123c
00000160: ea19 3c3c c1e4 393d 4589 333d c5b9 ab3c
00000170: ff74 823d 9860 983d 207a 533d 6e61 993d
00000180: 425e 383d 23e9 d83b 6d50 e93c ff82 5a3d
00000190: 3756 1e3c 839b 1e3d ea90 dfb9 a16c 043d
000001a0: 7d5c 2e3d 42c9 053d 7f74 6bbb 56e9 123d
000001b0: d70e 213d 3af6 5e3d 848a 1e3d ec3c f23c
000001c0: bfc6 bb3b bb96 c6bb 824e b2bb 0cca 133d
000001d0: 92ad 8a3d 549f 783d b877 163d 4169 24bc
000001e0: 9966 8b3d 4093 8b3c fa35 cf3c 9af5 c43c
000001f0: cf9c 313b 44e0 543d 91f3 813d 4951 ee3b
00000200: 4879 9e3d 6e63 653d 5018 333d ae26 043d
00000210: 87b3 b23c 5bc5 91bc 6c53 053d 9089 e83b
00000220: 464c 8fbb 5a05 6d3d 9303 aa3c a409 f93c
00000230: 7667 f43b 5a11 5a3d 31a2 5e3d 943e 1b3d
00000240: 9bc5 bd3c 4703 013d cbb7 603c df40 2a3d
00000250: c51e 8f3d 9913 bc3b 0b56 a13d 72f1 9c3b
00000260: 52f8 e83c 9469 e43c e7d9 353d ab26 013c
00000270: a971 933c 0983 853d f57f a73c 63a5 32bc
00000280: 8fda 8e3c 80f0 0c3d 9e90 193d fcfe 1e3d
00000290: 9e80 3f3b 8769 a1bb 6035 633d 3fbb 8e3d
000002a0: 134e dd3c 010d 8b3b 6674 5d3d bfe2 0f3d
000002b0: 7ff4 853c 9e43 043d 7753 0b3d 2aa8 3a3d
000002c0: 9e2f 4a3d 29ee 983c 3150 503d 8c1c 263d
000002d0: 9cb7 873d f0c0 893d e336 143d ed44 353d
000002e0: 1fed 623c 988c f83b 1f8b 343d bced 723d
000002f0: 8c7a 5b3d d9b5 293d 66e3 073d 55bb de3c
00000300: 3201 243d 6f1d 0c3d 9339 bd3c 6792 313d
00000310: 16ca c43c 54f3 a23c 0600 6c3d 476f 9a3d
00000320: a152 b93c 7cd6 073d 2df4 1c3b bb2b ce3c
00000330: feb5 ee3c e66a 0a3d 6ccc 553d 0502 0b3d
00000340: 580c 793d 04c6 473c b38f 923d 6842 933d
00000350: a564 853c 0ec9 3e3d 9653 aa3c 7244 1e3c
00000360: 26c1 713d 1c63 403d 6e52 043d a369 723d
00000370: f2b4 353d d700 3f3d 31f0 9c3c 3a8d 223d
00000380: 0df4 6f3d 9c6e eb3c df84 4e3d ebf8 093d
00000390: 08b2 763d 1882 833d f21c fd3c de9e 8a3d
000003a0: c4cf 593d 5e68 123d 3372 143d ca70 333d
000003b0: 558b 223c 7ff2 4ebc a852 273d 05fe 79ba
000003c0: 20ec ccba 7638 333d 38d5 a83d 7317 f73c
000003d0: 7dd2 4f3d fa99 ee3c 4633 443d 5d63 ee3b
000003e0: 6ba8 f2ba b321 113d 3333 3e3d 812d 223d
000003f0: 84d7 a93c 9777 203d d5fa c03c 86c3 b63c

ANN_1/Input/BiasAdd/ReadVariableOp/resource f4 [375]
-0.001407997 -0.0025176643 -0.011509144 -0.00071999955 0.0 0.006395045 0.0022534064 -0.0012335832
0.013957774 -0.014136648 -0.00017020197 -0.002469708 0.011694736 0.0039795344 -0.003450264 0.0064402055
0.006453734 -0.004068837 -0.010291024 0.01522962 -0.00028963824 0.0005396592 -0.0040961006 -0.014316961
0.0080780815 0.006162768 0.01676648 0.0018029041 -0.0060040625 -0.0016210116 0.008486898 0.006515796
0.0003972538 0.004250661 0.0 0.015365285 0.0009611543 -0.0045051035 0.0061997175 0.009379112
-0.0018309694 0.004269384 0.0051144464 -0.0015032236 -0.012808657 -0.0077728396 0.0 -0.00049873255
0.00981737 -0.0028405215 -0.008960939 -0.0005905382 0.012291484 -0.0022184877 -0.01209546 0.0049881395
-0.0031599074 0.0053715133 0.0049129636 0.0047887913 0.017834513 5.941677e-05 -0.015310519 0.0012766183
0.003938755 0.0 0.0 0.0074398187 0.0007738739 -0.014562273 0.0059104627 0.010586644
0.0018164113 0.017487448 -0.008461976 -0.011866567 -0.004232069 0.010963544 0.0 0.004534764
0.0 -0.005197534 -0.0013323084 -0.014665394 0.0 -0.0029193668 -0.009572958 0.0018856192
-0.0045290515 0.00530094 0.0005485508 0.0026406813 -0.001062807 0.0073180697 0.0012894971 0.006873261
-0.008068948 -0.0018577664 -0.005338126 0.00046325923 0.011259604 -0.0021818886 -0.0075700535 -0.0013609848
0.014575696 -0.0026731186 0.003952888 0.0037169645 0.0 0.0036989383 0.009578083 -0.0034614156
-0.004808763 0.0 -0.0037183356 0.00032223374 -0.012577486 0.0020105666 -0.0026141081 -0.0024772286
-0.004513464 0.0 -0.0003786245 -0.00023373059 0.003020312 -0.01110086 -0.010838406 -0.0072872792
-0.000653036 0.0037109633 0.0059183906 0.0 0.0061428566 0.0097606275 -0.0038393799 0.0056121745
-0.0049348245 -0.010101165 -0.009087809 0.0016873236 -0.004186288 0.0012173 0.011317431 0.000904752
-0.008885021 0.0 -0.0037325264 -0.008063139 -0.0124925515 -0.007376857 0.0045462097 0.009675371
-0.008368169 0.007785517 -0.009377219 0.013526501 -0.0063060923 0.006751745 0.011292246 0.0
0.015086576 0.014647796 0.002734237 -0.0010104278 0.0068098153 -0.011059359 0.00078040606 0.007927844
-0.00873328 0.014020551 -0.0033681002 0.0 -0.0005352717 0.0 0.00013766302 0.007010562
-0.0029477407 -0.0018367999 -0.007519695 0.0020151031 -0.0036131109 0.003568011 -0.00913644 -0.011587156
0.0006516239 0.0 -0.0035072397 -0.014698635 -0.0056801126 -0.004746364 -0.010626656 0.0050081285
0.002283268 0.013815262 -0.005461488 -0.003648928 -0.0019006778 0.0 0.0 0.00543573
-0.012486613 -0.0036355085 -0.014396481 -0.008619514 0.0004297032 -0.008151949 -0.002345165 0.00037567038
0.0020489441 0.0012746595 -0.006607986 -0.011043906 0.009065679 0.0037074133 -0.010138546 -0.01157922
-0.0004723306 -0.01238755 0.00021674206 -0.012156553 0.017249884 0.0043764752 -0.01677068 0.0043531866
-0.0064789616 -0.010545077 0.00742378 -0.005131186 -0.002955961 -0.008148011 0.006184292 -0.010996224
0.004437184 -0.006657631 -0.00054086145 0.0 0.0004742157 0.0 -0.001703092 0.0018646287
-0.0066955993 0.0013507407 0.008177192 -1.27209105e-05 -0.0027133636 -0.0038900455 0.0034064667 -0.006985463
-0.00058022136 -0.0013700628 -0.0013185402 -0.006114639 0.0020560126 -0.014329727 -0.005271879 0.0
00000000: 8a8c b8ba 66ff 24bb d990 3cbc 5abe 3cba
00000010: 0000 0000 878d d13b e3ad 133b 2fb0 a1ba
00000020: 26af 643c 669d 67bc 3e78 32b9 d3da 21bb
00000030: 479b 3f3c c166 823b d31d 62bb 5c08 d33b
00000040: d879 d33b e153 85bb af9b 28bc a885 793c
00000050: 96da 97b9 ea77 0d3a 9538 86bb b091 6abc
00000060: ee59 043c 0cf1 c93b db59 893c 6c4f ec3a
00000070: babd c4bb 2078 d4ba a10c 0b3c 7582 d53b
00000080: 8146 d039 2149 8b3b 0000 0000 adbe 7b3c
00000090: f9f5 7b3a 8c9f 93bb 0027 cb3b d9aa 193c
000000a0: 23fd efba 30e6 8b3b 1697 a73b d007 c5ba
000000b0: 67db 51bc 4eb3 febb 0000 0000 60bd 02ba
000000c0: 09d9 203c 0b28 3abb e7d0 12bc 59ce 1aba
000000d0: 3862 493c 0c64 11bb 092c 46bc 8c73 a33b
000000e0: 7316 4fbb 8503 b03b edfc a03b 4beb 9c3b
000000f0: af19 923c 4536 7938 f9d8 7abc 3454 a73a
00000100: ac10 813b 0000 0000 0000 0000 b9c9 f33b
00000110: ccdd 4a3a 9a96 6ebc 8eac c13b 9a73 2d3c
00000120: a614 ee3a d641 8f3c 1aa4 0abc fd6b 42bc
00000130: 2bad 8abb 70a0 333c 0000 0000 5c98 943b
00000140: 0000 0000 1350 aabb daa0 aeba 1f47 70bc
00000150: 0000 0000 d952 3fbb e5d7 1cbc e226 f73a
00000160: 7068 94bb 82b3 ad3b 9fcc 0f3a 480f 2d3b
00000170: e34d 8bba 6bcc ef3b 5804 a93a 1839 e13b
00000180: 9f33 04bc 4c80 f3ba 72eb aebb 9ae1 f239
00000190: 347a 383c 04fe 0ebb 360e f8bb 1263 b2ba
000001a0: e6ce 6e3c 7d2f 2fbb 3a87 813b 5198 733b
000001b0: 0000 0000 e369 723b 64ed 1c3c ebd8 62bb
000001c0: d492 9dbb 0000 0000 52af 73bb 7bf1 a839
000001d0: cd11 4ebc b6c3 033b 7551 2bbb 0059 22bb
000001e0: aee5 93bb 0000 0000 1f82 c6b9 9415 75b9
000001f0: 6df0 453b 62e0 35bc 9293 31bc 21ca eebb
00000200: 8130 2bba a233 733b 0fef c13b 0000 0000
00000210: 044a c93b 0aeb 1f3c 1b9e 7bbb 55e6 b73b
00000220: 4fb4 a1bb 5b7f 25bc 09e5 14bc 2f29 dd3a
00000230: 212d 89bb cf8d 9f3a bf6c 393c e12c 6d3a
00000240: 7b92 11bc 0000 0000 679d 74bb 421b 04bc
00000250: 8fad 4cbc 90b9 f1bb 5ff8 943b 7385 1e3c
00000260: a51a 09bc a61d ff3b e8a2 19bc 429e 5d3c
00000270: 56a3 cebb be3d dd3b 1d03 393c 0000 0000
00000280: b02d 773c 4ffd 6f3c e230 333b 5570 84ba
00000290: df24 df3b 5032 35bc 2a94 4c3a cae3 013c
000002a0: 0816 0fbc 74b6 653c 58bb 5cbb 0000 0000
000002b0: 7a51 0cba 0000 0000 a359 1039 dbb8 e53b
000002c0: e22e 41bb c7c0 f0ba c667 f6bb d20f 043b
000002d0: f1c9 6cbb 4bd5 693b 02b1 15bc 0ed8 3dbc
000002e0: bdd1 2a3a 0000 0000 b8d9 65bb 8bd2 70bc
000002f0: 3d20 babb 6387 9bbb 6d1b 2ebc 3a1b a43b
00000300: e1a2 153b 6959 623c 48f6 b2bb da22 6fbb
00000310: 2a20 f9ba 0000 0000 0000 0000 351e b23b
00000320: a794 4cbc b641 6ebb 38df 6bbc dd38 0dbc
00000330: ca49 e139 c18f 05bc 57b1 19bb a0f5 c439
00000340: 9447 063b 7a12 a73a ce87 d8bb 80f1 34bc
00000350: 3788 143c 13f8 723b 251c 26bc c5b6 3dbc
00000360: 24a3 f7b9 27f5 4abc 4145 6339 472c 47bc
00000370: a14f 8d3c 8968 8f3b aa62 89bc 2da5 8e3b
00000380: 784d d4bb 42c5 2cbc 2e43 f33b 8223 a8bb
00000390: ccb8 41bb 3c7f 05bc 9aa5 ca3b 8229 34bc
000003a0: cc65 913b 4228 dabb 99c8 0dba 0000 0000
000003b0: 27a0 f839 0000 0000 493a dfba 8f66 f43a
000003c0: c266 dbbb 560b b13a a1f9 053c e56b 55b7
000003d0: b0d2 31bb 22f0 7ebb 073f 5f3b 50e6 e4bb
000003e0: ff19 18ba ae93 b3ba ded2 acba 4f5d c8bb
000003f0: 2bbe 063b 3bc7 6abc babf acbb 0000 0000

ANN_1/Output/BiasAdd/ReadVariableOp/resource f4 [6]
0.0029151458 -0.021824708 0.035694983 -0.019356942 -0.0036233785 -0.00815278
00000000: 080c 3f3b bbc9 b2bc e734 123d 7392 9ebc
00000010: 3476 6dbb 3d93 05bc

ANN_1/Hiden_1/MatMul i1 [375, 375] scale=0.0032404056 zero_point=0
-0.038884867 -0.032404058 -0.12961623 -0.025923245 -0.07452933 0.08101014 -0.032404058 -0.0032404056
-0.032404058 0.068048514 0.042125273 -0.012961622 0.0032404056 0.061567705 -0.064808115 0.09073135
-0.106933385 -0.042125273 -0.055086896 0.19118392 -0.012961622 -0.09073135 0.058327302 -0.012961622
-0.025923245 -0.009721217 0.045365676 0.045365676 0.029163651 -0.19766474 0.0032404056 0.029163651
0.055086896 0.042125273 0.0032404056 0.15877987 0.012961622 0.045365676 0.10369298 0.012961622
-0.016202029 0.025923245 0.012961622 -0.106933385 -0.068048514 0.022682838 -0.07452933 0.07128892
0.12961623 -0.025923245 -0.032404058 -0.048606083 0.08749095 0.064808115 -0.05184649 -0.016202029
0.016202029 0.13609703 0.038884867 0.08101014 -0.012961622 -0.08425055 -0.07128892 0.058327302
0.0032404056 0.045365676 0.061567705 0.0032404056 0.042125273 -0.016202029 0.09397176 0.045365676
0.006480811 0.048606083 -0.116654605 0.08749095 0.077769734 0.077769734 -0.08749095 0.05184649
0.055086896 -0.077769734 0.17822231 0.0032404056 -0.07128892 -0.064808115 0.055086896 -0.03564446
-0.07128892 0.016202029 -0.019442433 -0.068048514 0.012961622 0.08101014 0.029163651 -0.0032404056
-0.13285662 0.03564446 -0.12961623 -0.08749095 0.045365676 0.12961623 -0.058327302 0.045365676
-0.019442433 -0.058327302 -0.045365676 0.009721217 0.03564446 0.05184649 -0.1134142 -0.012961622
0.068048514 -0.016202029 -0.042125273 0.07452933 -0.029163651 0.08425055 -0.045365676 -0.077769734
-0.064808115 0.07452933 -0.019442433 -0.038884867 -0.012961622 0.09073135 -0.09073135 0.016202029
-0.03564446 0.061567705 -0.08425055 0.08425055 0.116654605 -0.025923245 0.119895004 -0.07452933
-0.09397176 0.016202029 0.016202029 -0.09397176 0.016202029 0.0 0.07452933 0.07128892
0.058327302 0.019442433 -0.0032404056 -0.032404058 -0.03564446 0.038884867 0.006480811 0.012961622
-0.10045257 0.025923245 -0.045365676 -0.061567705 -0.10369298 0.012961622 0.14581825 -0.009721217
-0.058327302 0.061567705 -0.009721217 -0.042125273 -0.09397176 -0.061567705 0.055086896 -0.061567705
-0.006480811 -0.07128892 0.0 -0.048606083 0.14257784 -0.029163651 0.058327302 0.1685011
0.019442433 0.045365676 -0.048606083 0.13609703 0.07128892 -0.11017379 0.10045257 -0.055086896
-0.12313541 0.0032404056 -0.025923245 -0.05184649 -0.022682838 -0.03564446 0.025923245 0.1134142
0.068048514 -0.009721217 -0.03564446 0.061567705 0.07452933 -0.006480811 0.042125273 0.08101014
0.08425055 -0.0032404056 -0.116654605 -0.058327302 0.064808115 -0.045365676 -0.061567705 0.068048514
-0.07452933 0.009721217 0.006480811 -0.07128892 -0.042125273 0.13609703 0.006480811 -0.05184649
0.20738596 -0.1134142 -0.05184649 -0.08425055 0.08749095 0.08425055 -0.07128892 -0.14905865
-0.12961623 0.022682838 0.022682838 -0.07128892 0.12961623 -0.1685011 0.045365676 -0.045365676
0.116654605 0.012961622 0.068048514 -0.042125273 0.025923245 -0.019442433 -0.08101014 -0.029163651
-0.042125273 -0.08101014 0.055086896 -0.097212166 -0.016202029 -0.1814627 0.022682838 0.07128892
-0.10369298 -0.009721217 -0.016202029 -0.08425055 0.022682838 0.14905865 0.097212166 -0.058327302
00000000: f4f6 d8f8 e919 f6ff f615 0dfc 0113 ec1c
00000010: dff3 ef3b fce4 12fc f8fd 0e0e 09c3 0109
00000020: 110d 0131 040e 2004 fb08 04df eb07 e916
00000030: 28f8 f6f1 1b14 f0fb 052a 0c19 fce6 ea12
00000040: 010e 1301 0dfb 1d0e 020f dc1b 1818 e510
00000050: 11e8 3701 eaec 11f5 ea05 faeb 0419 09ff
00000060: d70b d8e5 0e28 ee0e faee f203 0b10 ddfc
00000070: 15fb f317 f71a f2e8 ec17 faf4 fc1c e405
00000080: f513 e61a 24f8 25e9 e305 05e3 0500 1716
00000090: 1206 fff6 f50c 0204 e108 f2ed e004 2dfd
000000a0: ee13 fdf3 e3ed 11ed feea 00f1 2cf7 1234
000000b0: 060e f12a 16de 1fef da01 f8f0 f9f5 0823
000000c0: 15fd f513 17fe 0d19 1aff dcee 14f2 ed15
000000d0: e903 02ea f32a 02f0 40dd f0e6 1b1a ead2
000000e0: d807 07ea 28cc 0ef2 2404 15f3 08fa e7f7
000000f0: f3e7 11e2 fbc8 0716 e0fd fbe6 072e 1eee

ANN_1/Hiden_2/MatMul i1 [750, 375] scale=0.0037600033 zero_point=0
0.052640047 -0.08272007 -0.0075200065 0.07144006 0.045120038 -0.018800016 -0.0075200065 -0.041360036
0.03384003 0.0075200065 -0.018800016 -0.030080026 0.13160011 0.018800016 -0.030080026 0.17296015
0.037600033 0.022560019 -0.1090401 -0.018800016 -0.022560019 -0.27072024 0.018800016 -0.120320104
-0.015040013 0.07896007 -0.041360036 -0.037600033 -0.05640005 0.1165601 0.060160052 -0.060160052
0.06392006 0.0112800095 0.1165601 -0.037600033 -0.041360036 -0.0037600033 0.060160052 -0.018800016
-0.07144006 -0.18048015 0.015040013 -0.18800016 0.04888004 0.037600033 0.060160052 0.0
0.1165601 -0.0075200065 0.07896007 0.052640047 0.1090401 -0.030080026 0.09776008 -0.030080026
0.13160011 0.1165601 0.045120038 0.06392006 -0.15416013 0.1090401 0.08272007 0.026320023
-0.09776008 0.018800016 0.1128001 -0.052640047 -0.0112800095 -0.10152009 -0.06392006 -0.04888004
-0.06392006 -0.060160052 0.045120038 0.04888004 -0.04888004 0.045120038 -0.015040013 0.05640005
0.030080026 0.06768006 -0.030080026 0.07144006 0.09776008 0.04888004 0.022560019 0.10152009
0.03384003 0.018800016 0.12784012 0.018800016 0.06392006 -0.026320023 0.05640005 -0.022560019
-0.060160052 0.045120038 0.022560019 0.08272007 -0.015040013 -0.022560019 0.07896007 0.07896007
0.08648007 0.0 -0.052640047 0.08648007 0.105280094 0.18424016 -0.06768006 0.03384003
0.060160052 0.0075200065 -0.19176017 -0.026320023 -0.060160052 0.07144006 0.052640047 -0.052640047
0.0037600033 0.0037600033 0.045120038 0.120320104 0.1090401 0.0 0.16168015 0.05640005
0.075200066 0.022560019 0.030080026 0.09776008 -0.018800016 0.030080026 0.05640005 0.120320104
0.08272007 -0.06392006 -0.22184019 -0.022560019 0.0075200065 0.0037600033 -0.075200066 -0.075200066
-0.06768006 0.052640047 -0.08272007 0.0075200065 0.022560019 -0.041360036 0.037600033 0.06768006
0.08272007 0.1090401 -0.022560019 0.07896007 -0.0112800095 0.13160011 -0.052640047 -0.07896007
0.037600033 -0.07896007 0.09776008 0.0037600033 0.030080026 0.06768006 0.022560019 0.045120038
0.07144006 0.06392006 0.045120038 0.10152009 -0.022560019 0.018800016 0.13160011 -0.09400008
0.026320023 -0.015040013 0.060160052 -0.08272007 -0.0075200065 -0.041360036 -0.13160011 -0.0037600033
-0.060160052 0.015040013 0.037600033 0.07896007 0.037600033 0.052640047 -0.06392006 0.09776008
0.030080026 0.0 -0.018800016 -0.030080026 0.075200066 0.09776008 0.045120038 -0.09776008
0.12408011 0.022560019 0.026320023 0.13160011 -0.07896007 0.06392006 -0.1128001 -0.0112800095
-0.0075200065 0.05640005 0.045120038 0.06392006 0.08648007 0.041360036 0.07144006 0.015040013
-0.041360036 0.1128001 -0.04888004 0.06768006 0.018800016 0.0075200065 -0.041360036 -0.090240076
0.060160052 0.10152009 0.018800016 -0.0037600033 0.10152009 -0.05640005 0.0075200065 -0.0112800095
-0.0037600033 -0.13160011 0.041360036 -0.090240076 0.03384003 0.06768006 -0.037600033 0.026320023
0.045120038 0.045120038 0.17296015 0.0037600033 0.06768006 -0.06392006 0.037600033 0.07144006
-0.026320023 0.090240076 -0.03384003 -0.037600033 -0.041360036 -0.041360036 0.07144006 -0.05640005
00000000: 0eea fe13 0cfb fef5 0902 fbf8 2305 f82e
00000010: 0a06 e3fb fab8 05e0 fc15 f5f6 f11f 10f0
00000020: 1103 1ff6 f5ff 10fb edd0 04ce 0d0a 1000
00000030: 1ffe 150e 1df8 1af8 231f 0c11 d71d 1607
00000040: e605 1ef2 fde5 eff3 eff0 0c0d f30c fc0f
00000050: 0812 f813 1a0d 061b 0905 2205 11f9 0ffa
00000060: f00c 0616 fcfa 1515 1700 f217 1c31 ee09
00000070: 1002 cdf9 f013 0ef2 0101 0c20 1d00 2b0f
00000080: 1406 081a fb08 0f20 16ef c5fa 0201 ecec
00000090: ee0e ea02 06f5 0a12 161d fa15 fd23 f2eb
000000a0: 0aeb 1a01 0812 060c 1311 0c1b fa05 23e7
000000b0: 07fc 10ea fef5 ddff f004 0a15 0a0e ef1a
000000c0: 0800 fbf8 141a 0ce6 2106 0723 eb11 e2fd
000000d0: fe0f 0c11 170b 1304 f51e f312 0502 f5e8
000000e0: 101b 05ff 1bf1 02fd ffdd 0be8 0912 f607
000000f0: 0c0c 2e01 12ef 0a13 f918 f7f6 f5f5 13f1

ANN_1/Input/MatMul i1 [375, 375] scale=0.005338867 zero_point=0
-0.010677734 0.05872754 -0.05872754 0.010677734 0.05338867 -0.085421875 -0.080083005 -0.010677734
0.010677734 -0.07474414 0.010677734 -0.010677734 0.07474414 0.016016603 -0.05872754 0.005338867
0.026694335 0.080083005 0.021355469 -0.05872754 -0.07474414 0.021355469 0.010677734 -0.07474414
-0.010677734 -0.005338867 0.032033205 0.016016603 0.080083005 -0.042710938 -0.042710938 -0.080083005
-0.042710938 -0.07474414 0.021355469 0.026694335 -0.032033205 -0.032033205 0.06940527 -0.042710938
0.0 0.06940527 0.05872754 -0.080083005 0.005338867 0.026694335 0.026694335 0.021355469
-0.06406641 -0.032033205 -0.080083005 -0.085421875 -0.010677734 0.005338867 0.032033205 -0.085421875
-0.032033205 0.05338867 0.026694335 0.005338867 0.042710938 0.03737207 -0.005338867 0.085421875
0.0 0.03737207 -0.06406641 0.032033205 0.07474414 -0.06406641 0.080083005 -0.032033205
-0.06940527 0.0 -0.010677734 -0.05872754 0.032033205 0.048049804 0.03737207 -0.085421875
0.026694335 0.06940527 -0.048049804 -0.06940527 -0.05872754 -0.06940527 -0.05338867 0.010677734
0.032033205 -0.06406641 0.03737207 -0.090760745 -0.07474414 0.0 -0.005338867 -0.016016603
0.07474414 0.07474414 0.05872754 0.085421875 0.06940527 0.032033205 -0.080083005 0.032033205
0.026694335 -0.06940527 -0.032033205 0.005338867 -0.085421875 0.026694335 0.03737207 -0.016016603
-0.07474414 0.06406641 -0.03737207 -0.05872754 -0.06940527 -0.090760745 0.06940527 0.032033205
0.06406641 0.0 0.07474414 0.0 -0.016016603 0.016016603 0.048049804 -0.026694335
0.048049804 -0.048049804 0.010677734 -0.05872754 -0.010677734 0.05338867 0.085421875 0.005338867
0.07474414 -0.05338867 -0.080083005 -0.05338867 0.016016603 0.085421875 0.080083005 0.016016603
-0.07474414 0.005338867 0.0 -0.026694335 0.03737207 -0.080083005 -0.05338867 0.0
-0.080083005 0.06940527 0.05338867 -0.03737207 -0.042710938 0.032033205 -0.048049804 0.005338867
-0.042710938 -0.06940527 0.016016603 0.042710938 -0.05872754 0.06940527 0.048049804 -0.05338867
0.06406641 0.05338867 -0.06940527 -0.048049804 0.005338867 -0.032033205 -0.07474414 -0.06940527
-0.026694335 0.016016603 0.07474414 0.080083005 -0.06406641 -0.005338867 -0.080083005 -0.06406641
0.085421875 0.07474414 0.016016603 -0.07474414 0.005338867 0.07474414 -0.021355469 -0.016016603
0.005338867 -0.048049804 0.0 0.021355469 -0.05872754 0.042710938 -0.032033205 -0.06940527
0.016016603 -0.07474414 0.06406641 -0.032033205 -0.042710938 0.005338867 0.05338867 0.042710938
-0.085421875 -0.05872754 0.010677734 -0.016016603 0.021355469 0.05872754 0.05338867 -0.05872754
0.0 0.010677734 -0.085421875 -0.016016603 0.07474414 0.03737207 0.07474414 -0.080083005
-0.03737207 -0.06406641 0.042710938 0.05872754 -0.032033205 0.042710938 0.048049804 -0.090760745
0.021355469 0.05338867 -0.026694335 -0.048049804 -0.010677734 0.010677734 -0.021355469 -0.021355469
-0.005338867 -0.048049804 0.048049804 0.010677734 -0.085421875 -0.005338867 -0.06940527 0.016016603
-0.05338867 0.032033205 -0.03737207 -0.080083005 -0.032033205 -0.03737207 0.048049804 0.03737207
00000000: fe0b f502 0af0 f1fe 02f2 02fe 0e03 f501
00000010: 050f 04f5 f204 02f2 feff 0603 0ff8 f8f1
00000020: f8f2 0405 fafa 0df8 000d 0bf1 0105 0504
00000030: f4fa f1f0 fe01 06f0 fa0a 0501 0807 ff10
00000040: 0007 f406 0ef4 0ffa f300 fef5 0609 07f0
00000050: 050d f7f3 f5f3 f602 06f4 07ef f200 fffd
00000060: 0e0e 0b10 0d06 f106 05f3 fa01 f005 07fd
00000070: f20c f9f5 f3ef 0d06 0c00 0e00 fd03 09fb
00000080: 09f7 02f5 fe0a 1001 0ef6 f1f6 0310 0f03
00000090: f201 00fb 07f1 f600 f10d 0af9 f806 f701
000000a0: f8f3 0308 f50d 09f6 0c0a f3f7 01fa f2f3
000000b0: fb03 0e0f f4ff f1f4 100e 03f2 010e fcfd
000000c0: 01f7 0004 f508 faf3 03f2 0cfa f801 0a08
000000d0: f0f5 02fd 040b 0af5 0002 f0fd 0e07 0ef1
000000e0: f9f4 080b fa08 09ef 040a fbf7 fe02 fcfc
000000f0: fff7 0902 f0ff f303 f606 f9f1 faf9 0907

ANN_1/Output/MatMul i1 [6, 750] scale=0.0067048213 zero_point=0
-0.08045785 0.17432535 -0.1542109 -0.20784946 -0.0067048213 -0.16762052 0.14080125 -0.033524107
0.11398196 -0.18773499 0.26148802 0.0134096425 0.08045785 0.05363857 -0.1609157 -0.17432535
-0.16762052 -0.020114463 0.120686784 0.046933748 0.32853624 -0.2547832 -0.36876518 -0.040228926
0.05363857 -0.33524105 0.24137357 0.1273916 0.1542109 -0.060343392 -0.08045785 -0.18773499
0.040228926 -0.24137357 -0.10057232 0.067048214 0.046933748 0.10727714 -0.08045785 -0.060343392
-0.20114464 0.120686784 0.29501215 0.10727714 -0.10057232 -0.026819285 -0.08045785 0.14080125
-0.1609157 0.093867496 0.14080125 -0.10727714 -0.10057232 0.11398196 0.20784946 0.08716267
0.10057232 -0.08045785 -0.26819286 0.033524107 0.026819285 -0.1273916 -0.05363857 -0.14750607
0.14080125 0.026819285 0.060343392 -0.26148802 0.093867496 0.1609157 -0.30171695 -0.13409643
0.026819285 0.067048214 0.14750607 0.2212591 -0.18103017 0.10727714 -0.19443981 0.0
-0.5095664 -0.1273916 -0.0134096425 0.18773499 -0.23466875 -0.26148802 -0.17432535 -0.120686784
-0.10727714 -0.046933748 0.08045785 0.11398196 0.0134096425 0.046933748 -0.060343392 0.1273916
-0.0067048213 0.2547832 -0.13409643 0.08716267 -0.17432535 0.08045785 0.18773499 0.13409643
0.026819285 -0.026819285 0.10727714 0.067048214 -0.08045785 -0.2212591 0.093867496 -0.067048214
0.0134096425 0.11398196 0.120686784 0.11398196 -0.2547832 0.033524107 0.10727714 0.093867496
0.0134096425 0.05363857 0.1609157 0.1542109 -0.17432535 -0.26819286 0.2212591 0.14080125
-0.20784946 -0.040228926 -0.10057232 0.14750607 -0.08045785 -0.11398196 0.120686784 -0.18773499
0.026819285 0.020114463 0.13409643 0.17432535 -0.18103017 0.10727714 0.033524107 0.08716267
-0.2547832 0.1609157 -0.1273916 -0.120686784 0.2212591 0.1609157 -0.040228926 0.093867496
0.093867496 0.033524107 -0.120686784 -0.13409643 -0.14750607 0.046933748 0.18103017 -0.11398196
0.11398196 -0.0134096425 -0.060343392 0.10727714 -0.0067048213 -0.10727714 -0.21455428 -0.27489766
0.093867496 0.10057232 -0.026819285 0.08716267 -0.10057232 -0.16762052 0.11398196 -0.3084218
0.120686784 -0.19443981 -0.08716267 -0.14750607 -0.1609157 0.120686784 0.16762052 -0.18773499
0.14750607 -0.13409643 -0.17432535 -0.32853624 0.11398196 0.026819285 0.07375304 -0.37546998
0.08045785 0.1273916 0.10727714 -0.05363857 0.060343392 0.13409643 0.11398196 0.11398196
-0.10057232 -0.39558446 0.20784946 0.046933748 -0.14080125 0.19443981 0.1542109 -0.026819285
-0.0067048213 0.16762052 0.1273916 -0.19443981 0.093867496 -0.20114464 0.18103017 -0.0067048213
-0.120686784 0.0 0.29501215 -0.0067048213 0.093867496 -0.6302532 0.093867496 -0.11398196
-0.48274714 0.0067048213 -0.10727714 -0.1609157 0.040228926 -0.20784946 -0.11398196 0.046933748
0.11398196 0.11398196 0.11398196 -0.21455428 0.1273916 -0.0067048213 0.08045785 -0.046933748
0.1542109 0.14080125 0.1542109 -0.1609157 -0.093867496 -0.020114463 -0.14080125 -0.23466875
0.0067048213 0.0067048213 -0.20784946 0.040228926 0.1542109 0.11398196 -0.1542109 -0.20784946
00000000: f41a e9e1 ffe7 15fb 11e4 2702 0c08 e8e6
00000010: e7fd 1207 31da c9fa 08ce 2413 17f7 f4e4
00000020: 06dc f10a 0710 f4f7 e212 2c10 f1fc f415
00000030: e80e 15f0 f111 1f0d 0ff4 d805 04ed f8ea
00000040: 1504 09d9 0e18 d3ec 040a 1621 e510 e300
00000050: b4ed fe1c ddd9 e6ee f0f9 0c11 0207 f713
00000060: ff26 ec0d e60c 1c14 04fc 100a f4df 0ef6
00000070: 0211 1211 da05 100e 0208 1817 e6d8 2115
00000080: e1fa f116 f4ef 12e4 0403 141a e510 050d
00000090: da18 edee 2118 fa0e 0e05 eeec ea07 1bef
000000a0: 11fe f710 fff0 e0d7 0e0f fc0d f1e7 11d2
000000b0: 12e3 f3ea e812 19e4 16ec e6cf 1104 0bc8
000000c0: 0c13 10f8 0914 1111 f1c5 1f07 eb1d 17fc
000000d0: ff19 13e3 0ee2 1bff ee00 2cff 0ea2 0eef
000000e0: b801 f0e8 06e1 ef07 1111 11e0 13ff 0cf9
000000f0: 1715 17e8 f2fd ebdd 0101 e106 1711 e9e1
