_ESR/Saved_models_fold_1_validation/Model_CNN_1D_weights_0_best_norm_windowed.tflite (tflite, 534592 bytes, 13 tensors)

CNN_1D/Conv1D_1/BiasAdd/ReadVariableOp/resource f4 [28]
0	0x3c955d91	0.018233093
1	0x3d9f848d	0.07788954
2	0x3d0f3a76	0.034967862
3	0x3b9a6202	0.0047113905
4	0x3d65a1dd	0.056062568
5	0x3c83da3c	0.016095273
6	0x3cf85c57	0.030317469
7	0x3d428bf5	0.047496755
8	0x3d17dd6e	0.037076406
9	0x3d06bf18	0.032897085
10	0x3c6745b8	0.014115743
11	0x3c86cb80	0.016454458
12	0x3cb7a8a1	0.022419276
13	0x3ce3f254	0.027825512
14	0xbbe16d08	-0.0068794526
15	0x3c31f8a8	0.010862507
16	0x3b9ee4b9	0.004849043
17	0x3c88dbcd	0.016706372
18	0x3d10fe2d	0.03539865
19	0xbe7690e6	-0.24078712
20	0x3b6b1c12	0.0035874886
21	0x3d0ce3a9	0.0343968
22	0x3c657515	0.014004965
23	0x3cc744e3	0.02432484
24	0x3c9e43fb	0.019319525
25	0x3c68ac45	0.0142012285
26	0x3d029fdf	0.031890746
27	0x3cea19e2	0.028576795

CNN_1D/Conv1D_2/BiasAdd/ReadVariableOp/resource f4 [34]
0	0xb51b55e9	-5.7867015e-07
1	0xbbdcb1e3	-0.006735073
2	0x3c91959b	0.017771533
3	0x3b685309	0.0035449883
4	0x3cd4acfd	0.025961393
5	0x838cfa65	-8.285948e-37
6	0xbb18a4fa	-0.0023291693
7	0xb8b288a9	-8.513156e-05
8	0x3c1547ae	0.009111328
9	0x3d0f79fd	0.035028446
10	0x3b16ea5e	0.0023027877
11	0xbb2abdf2	-0.0026053158
12	0x3c813fe5	0.015777538
13	0x3d18a09e	0.03726255
14	0x3c57a915	0.013162871
15	0xbb41c2bc	-0.0029565534
16	0x3c032508	0.008004434
17	0xbcce2411	-0.025163682
18	0x3c7eb271	0.015545473
19	0x3ceadc44	0.028669484
20	0x3b3c0537	0.0028689632
21	0x3d116b66	0.035502814
22	0x3ca713fe	0.020395275
23	0x3cf2e0c1	0.029648187
24	0x3b333bf3	0.0027348965
25	0x3c8390d1	0.016060265
26	0xbc24eeae	-0.010066671
27	0x3cc14891	0.023594173
28	0xbd2aafb6	-0.041671477
29	0xbbeeae8f	-0.0072839926
30	0x3ca3725c	0.019951992
31	0xbcb9e944	-0.022694238
32	0xbc853bac	-0.016263805
33	0x3c770ba8	0.015078463

CNN_1D/Conv1D_3/BiasAdd/ReadVariableOp/resource f4 [56]
0	0x3d0ade82	0.033903606
1	0x3bc79534	0.0060907844
2	0xbd6a5fe7	-0.057220366
3	0x3c92cd9e	0.017920312
4	0x3d37ea28	0.044901043
5	0x3d07d407	0.03316119
6	0x3c9ccf31	0.019141765
7	0x3d153367	0.036425974
8	0x3d39ea36	0.045389377
9	0x3b800199	0.0039064405
10	0x3d0c92a3	0.03431953
11	0x3cd248de	0.025669511
12	0x3b13f266	0.00225749
13	0x3ce311f0	0.027718514
14	0xbc7ba6a9	-0.015359559
15	0x3ad184ca	0.0015985009
16	0xbc07a510	-0.0082791
17	0x3c87a53f	0.016558288
18	0x3c73b664	0.014875028
19	0x3c9454b8	0.018106803
20	0x3c810997	0.015751643
21	0xbb39b6de	-0.0028337757
22	0x3ca9de58	0.020735905
23	0x3bbaf666	0.0057056425
24	0x3d37626b	0.044771593
25	0x3ca5738b	0.020196697
26	0x3d010812	0.031501837
27	0x3cd75834	0.026287176
28	0x3ceea2ae	0.029130306
29	0xbc339a17	-0.010962031
30	0x3c66b94d	0.014082265
31	0x3d21b26a	0.03947679
32	0x3c41c00c	0.011825573
33	0x3ca42c59	0.020040678
34	0x3caf6938	0.021412477
35	0x3d2b683a	0.041847445
36	0xbdd2c4b4	-0.102914244
37	0x3bab1571	0.005221062
38	0x3d33736b	0.043811243
39	0x3d36ba13	0.044611048
40	0x3d11b59b	0.035573583
41	0x3d074d09	0.03303245
42	0x3b792d0e	0.003802124
43	0x3d053a01	0.03252602
44	0x3cd286b6	0.025699
45	0x3c0365d7	0.008019886
46	0x3c9d556b	0.01920577
47	0x3bd51143	0.006502302
48	0x3d25180b	0.040306132
49	0x3c23aed0	0.009990409
50	0x3c2a10dc	0.010379996
51	0x3d0f02af	0.03491467
52	0x3ce6e65b	0.028186014
53	0x3d0e15d4	0.034688786
54	0xbcbfbb94	-0.023404874
55	0xbafded28	-0.0019373046

CNN_1D/Dense/BiasAdd/ReadVariableOp/resource f4 [50]
0	0x3c64a0d6	0.013954362
1	0xbc8062b3	-0.015672063
2	0xbbba87b8	-0.0056924485
3	0xbb9391e9	-0.004503478
4	0x3c2db198	0.010601424
5	0x3ca449c8	0.020054713
6	0x3c8a7b78	0.016904578
7	0xbc369092	-0.011142867
8	0xbc369d3f	-0.011145889
9	0xbcca6013	-0.024704015
10	0xbc3c1325	-0.011479174
11	0xbc07bae7	-0.008284307
12	0x3ad4e7b7	0.0016243373
13	0xbc737dc5	-0.014861529
14	0x3c12da99	0.008963251
15	0xbc98b674	-0.018641688
16	0xbd21cb07	-0.039500263
17	0x3a556e56	0.00081417465
18	0xbc38cbaf	-0.011279031
19	0xbd0cdd43	-0.0343907
20	0xbbc41049	-0.0059833867
21	0x3d08fcb4	0.03344412
22	0x3cf5ffb5	0.030029157
23	0x3cbf15cb	0.023325821
24	0xbbaba0f0	-0.005237691
25	0xbd34e9d2	-0.0441683
26	0x3d09a7b6	0.033607207
27	0xbd07602d	-0.033050705
28	0x3d106441	0.03525186
29	0x3c9dd480	0.019266367
30	0x3bd21892	0.0064116204
31	0x3cc79041	0.024360778
32	0xbcc8a6be	-0.024493571
33	0xbb12b212	-0.002238397
34	0xbae890f7	-0.0017743398
35	0x3c451641	0.0120292315
36	0x3c52a969	0.012857773
37	0xbd41b8f0	-0.04729551
38	0x3cd8d476	0.026468497
39	0xbb073cb9	-0.0020635559
40	0xbb271a21	-0.0025497752
41	0xbc3a0a45	-0.0113549875
42	0x3cb43496	0.021997731
43	0x3d0b811d	0.03405868
44	0x3b285d89	0.0025690517
45	0x3cc24d14	0.023718394
46	0xbccbdd7e	-0.02488589
47	0xbc594683	-0.01326144
48	0xbcca9dde	-0.02473348
49	0xbc8fdcf3	-0.017561411

CNN_1D/Output/BiasAdd/ReadVariableOp/resource f4 [6]
0	0xbcd9df72	-0.026595805
1	0xbd2eb2d9	-0.04265103
2	0x3c9ff72f	0.019527046
3	0x3c2d9c64	0.010596368
4	0xbb3c9a7d	-0.0028778606
5	0x3aea32b8	0.0017867899

CNN_1D/Dense/MatMul i1 [50, 10304] scale=0.007888406 zero_point=0
0	0xd3	-0.35497826
1	0x17	0.18143333
2	0x30	0.37864345
3	0xff	-0.007888406
4	0x02	0.015776811
5	0x05	0.03944203
6	0x0e	0.11043768
7	0x24	0.2839826
8	0x01	0.007888406
9	0x07	0.05521884
10	0xcd	-0.40230867
11	0x24	0.2839826
12	0x22	0.2682058
13	0x02	0.015776811
14	0xee	-0.1419913
15	0x13	0.14987971
16	0x05	0.03944203
17	0x1c	0.22087535
18	0xf0	-0.12621449
19	0x1d	0.22876376
20	0xdd	-0.2760942
21	0xfc	-0.031553622
22	0xe5	-0.21298695
23	0x24	0.2839826
24	0x87	-0.9544971
25	0x20	0.25242898
26	0x06	0.04733043
27	0xf3	-0.10254927
28	0x00	0.0
29	0xd4	-0.34708986
30	0x31	0.38653186
31	0x13	0.14987971
32	0x02	0.015776811
33	0xfe	-0.015776811
34	0x13	0.14987971
35	0x9f	-0.76517534
36	0x1d	0.22876376
37	0xd5	-0.33920145
38	0xbb	-0.54429996
39	0x02	0.015776811
40	0xf7	-0.07099565
41	0xfa	-0.04733043
42	0x08	0.063107245
43	0xf3	-0.10254927
44	0xfa	-0.04733043
45	0x07	0.05521884
46	0xf2	-0.11043768
47	0xdd	-0.2760942
48	0xff	-0.007888406
49	0xe3	-0.22876376
50	0x1f	0.24454057
51	0xe4	-0.22087535
52	0xf3	-0.10254927
53	0xf4	-0.09466086
54	0xf9	-0.05521884
55	0x26	0.29975942
56	0x15	0.16565652
57	0x0f	0.11832608
58	0x0c	0.09466086
59	0x05	0.03944203
60	0xc3	-0.48119274
61	0x00	0.0
62	0xee	-0.1419913
63	0x03	0.023665216
64	0x13	0.14987971
65	0xc4	-0.47330433
66	0x01	0.007888406
67	0xfa	-0.04733043
68	0x26	0.29975942
69	0x13	0.14987971
70	0xff	-0.007888406
71	0xfa	-0.04733043
72	0x0c	0.09466086
73	0xb7	-0.5758536
74	0x00	0.0
75	0xfc	-0.031553622
76	0x03	0.023665216
77	0x15	0.16565652
78	0x07	0.05521884
79	0xfe	-0.015776811
80	0x01	0.007888406
81	0x09	0.07099565
82	0x0f	0.11832608
83	0x06	0.04733043
84	0x1d	0.22876376
85	0xff	-0.007888406
86	0x11	0.1341029
87	0xf5	-0.086772464
88	0x0c	0.09466086
89	0xc3	-0.48119274
90	0x11	0.1341029
91	0x02	0.015776811
92	0x07	0.05521884
93	0xfe	-0.015776811
94	0xf4	-0.09466086
95	0x0c	0.09466086
96	0xb2	-0.61529565
97	0x00	0.0
98	0xef	-0.1341029
99	0x03	0.023665216
100	0x00	0.0
101	0x21	0.2603174
102	0x02	0.015776811
103	0xde	-0.2682058
104	0xf8	-0.063107245
105	0x3e	0.48908114
106	0xfb	-0.03944203
107	0xdf	-0.2603174
108	0xe3	-0.22876376
109	0x0c	0.09466086
110	0x05	0.03944203
111	0x13	0.14987971
112	0x08	0.063107245
113	0xfe	-0.015776811
114	0xf9	-0.05521884
115	0xf8	-0.063107245
116	0xfc	-0.031553622
117	0xfc	-0.031553622
118	0x01	0.007888406
119	0x00	0.0
120	0xf8	-0.063107245
121	0x04	0.031553622
122	0x05	0.03944203
123	0x04	0.031553622
124	0x07	0.05521884
125	0x18	0.18932173
126	0xff	-0.007888406
127	0xff	-0.007888406
128	0x08	0.063107245
129	0x06	0.04733043
130	0xff	-0.007888406
131	0x1b	0.21298695
132	0x03	0.023665216
133	0x04	0.031553622
134	0x02	0.015776811
135	0x04	0.031553622
136	0xff	-0.007888406
137	0x0c	0.09466086
138	0x11	0.1341029
139	0x03	0.023665216
140	0x08	0.063107245
141	0x05	0.03944203
142	0x01	0.007888406
143	0xf2	-0.11043768
144	0xf4	-0.09466086
145	0xf9	-0.05521884
146	0x01	0.007888406
147	0xe7	-0.19721013
148	0x31	0.38653186
149	0x0e	0.11043768
150	0xfb	-0.03944203
151	0x16	0.17354493
152	0x01	0.007888406
153	0x0b	0.086772464
154	0x12	0.1419913
155	0x04	0.031553622
156	0x04	0.031553622
157	0xf9	-0.05521884
158	0xfc	-0.031553622
159	0x02	0.015776811
160	0x24	0.2839826
161	0x0d	0.10254927
162	0x11	0.1341029
163	0x0a	0.07888406
164	0xfe	-0.015776811
165	0xff	-0.007888406
166	0xde	-0.2682058
167	0x22	0.2682058
168	0x29	0.32342464
169	0xf3	-0.10254927
170	0xf4	-0.09466086
171	0xf9	-0.05521884
172	0x37	0.4338623
173	0x08	0.063107245
174	0xfc	-0.031553622
175	0x15	0.16565652
176	0x02	0.015776811
177	0x04	0.031553622
178	0x01	0.007888406
179	0x13	0.14987971
180	0x16	0.17354493
181	0x03	0.023665216
182	0x04	0.031553622
183	0x32	0.39442027
184	0x12	0.1419913
185	0x03	0.023665216
186	0x03	0.023665216
187	0x02	0.015776811
188	0x05	0.03944203
189	0xfa	-0.04733043
190	0x12	0.1419913
191	0x21	0.2603174
192	0x06	0.04733043
193	0xe5	-0.21298695
194	0xff	-0.007888406
195	0x08	0.063107245
196	0xef	-0.1341029
197	0x03	0.023665216
198	0xef	-0.1341029
199	0xed	-0.14987971
200	0x02	0.015776811
201	0x04	0.031553622
202	0x03	0.023665216
203	0x28	0.31553623
204	0xf1	-0.11832608
205	0x19	0.19721013
206	0x09	0.07099565
207	0x18	0.18932173
208	0xf8	-0.063107245
209	0xe7	-0.19721013
210	0x2e	0.36286667
211	0x0b	0.086772464
212	0x11	0.1341029
213	0xe5	-0.21298695
214	0x02	0.015776811
215	0x06	0.04733043
216	0x1b	0.21298695
217	0x01	0.007888406
218	0x1a	0.20509854
219	0xe7	-0.19721013
220	0x00	0.0
221	0x11	0.1341029
222	0xf2	-0.11043768
223	0x14	0.15776812
224	0xff	-0.007888406
225	0xf4	-0.09466086
226	0xe9	-0.18143333
227	0xf7	-0.07099565
228	0xd4	-0.34708986
229	0x1e	0.23665217
230	0x07	0.05521884
231	0xe5	-0.21298695
232	0xd6	-0.33131304
233	0x00	0.0
234	0x06	0.04733043
235	0xf5	-0.086772464
236	0x01	0.007888406
237	0xe9	-0.18143333
238	0x02	0.015776811
239	0x11	0.1341029
240	0x1e	0.23665217
241	0x05	0.03944203
242	0xf0	-0.12621449
243	0x1d	0.22876376
244	0x11	0.1341029
245	0xef	-0.1341029
246	0xf4	-0.09466086
247	0x15	0.16565652
248	0x10	0.12621449
249	0x21	0.2603174
250	0x0e	0.11043768
251	0xfe	-0.015776811
252	0x18	0.18932173
253	0x09	0.07099565
254	0x1b	0.21298695
255	0xf6	-0.07888406

CNN_1D/Output/MatMul f4 [6, 50]
0	0x3ecb3d7b	0.39695343
1	0x3ec401c3	0.38282594
2	0x3eb71b7f	0.35763165
3	0xbdca8e45	-0.09890417
4	0x3dad2f81	0.08456326
5	0xbf8bb165	-1.0913512
6	0xbefd2bd4	-0.494475
7	0xbedfce19	-0.43711928
8	0xbcb9c335	-0.02267609
9	0x3df260a2	0.118348375
10	0x3f04f269	0.5193239
11	0x3f271de8	0.6528001
12	0xbefd184c	-0.494326
13	0x3d7e875b	0.062140804
14	0xbf0bb2b7	-0.5456957
15	0x3e5b8a3f	0.21439455
16	0x3eec2719	0.4612358
17	0x3f4628c2	0.7740594
18	0x3e7c259c	0.24623722
19	0x3ea333cd	0.31875458
20	0x3f003368	0.5007844
21	0xbe959698	-0.29216456
22	0xbf272ab4	-0.65299535
23	0xbdc2828c	-0.09497556
24	0x3f15e1ac	0.5854747
25	0x3ea6eeb6	0.32603997
26	0x3c128cc7	0.008944697
27	0x3e98e466	0.29861754
28	0xbf0ec49d	-0.5576876
29	0xbe21dfe3	-0.15808062
30	0xbf7fdf32	-0.99949944
31	0xbf39f2b2	-0.7263595
32	0x3f0d001a	0.5507828
33	0x3ef6cb13	0.48201808
34	0x3e794993	0.24344473
35	0x3ea48651	0.32133725
36	0xbf07d8cd	-0.53065187
37	0x3e258312	0.1616328
38	0xbeac6d2b	-0.3367704
39	0x3f2620b4	0.6489365
40	0xbf1d4960	-0.61440086
41	0xbe4fc9c0	-0.20291805
42	0x3ce3eb5e	0.027822193
43	0xbeabfd98	-0.33591914
44	0x3e9afa10	0.30268908
45	0xbea905e8	-0.3301232
46	0x3f1e3892	0.6180507
47	0x3f297c85	0.66205627
48	0x3ee0fd8d	0.43943444
49	0x3e811e43	0.252184
50	0xbea298d9	-0.31757239
51	0x3e488d63	0.19585185
52	0xbe6cbdc7	-0.2311927
53	0x3eab0dce	0.3340897
54	0xbeadbe22	-0.33934122
55	0xbe38ec7e	-0.18058965
56	0xbdb00bab	-0.085959755
57	0x3fc8bc2c	1.5682425
58	0x3e58b8a9	0.21164192
59	0x3f41caad	0.75699884
60	0xbecfcb31	-0.4058471
61	0xbfa6fea5	-1.3046461
62	0x3f08231c	0.5317857
63	0x3eb78f8e	0.3585171
64	0x3f083c23	0.5321676
65	0x3f2393ba	0.6389729
66	0x3f20f505	0.6287387
67	0xbf4e3be2	-0.80560124
68	0x3eb03c5a	0.34421045
69	0x3ee7f9cf	0.45307776
70	0xbeabef0d	-0.3358082
71	0xbf1a86f4	-0.6036217
72	0xbeb9098d	-0.361401
73	0xbf4843c8	-0.78228426
74	0xbf589dd4	-0.84615827
75	0x3eac5bcd	0.33663788
76	0xbf65bfb1	-0.8974562
77	0x3fbd5dcd	1.4794251
78	0xbf17537e	-0.59111774
79	0xbe9683c6	-0.2939741
80	0x3ef40396	0.47658986
81	0xbe94f9a7	-0.2909672
82	0x3f065cdc	0.5248544
83	0xbf86a3ce	-1.0518739
84	0xbf0bf01c	-0.5466325
85	0xbfec5458	-1.846324
86	0xbe067dc5	-0.13133915
87	0x3f4d3b1f	0.80168337
88	0xbcd767ad	-0.026294554
89	0xbee6d4e5	-0.450843
90	0x3f60327c	0.87577033
91	0x3f562a2c	0.836581
92	0xbfd43d99	-1.6581298
93	0xbfea3d0f	-1.8299884
94	0xbf70cd20	-0.94062996
95	0xbe0a39d5	-0.13498624
96	0x3f17d1bc	0.59304404
97	0xbe5ff032	-0.21868971
98	0x3e4c5711	0.19955088
99	0x3ea89ddd	0.3293294
100	0x3f837090	1.0268726
101	0xbcb482d8	-0.022035047
102	0x3ed9aa01	0.42512515
103	0xbf1c174a	-0.60973036
104	0x3e4d1b84	0.20030028
105	0x3ddce589	0.10785968
106	0x3ee56c2f	0.448091
107	0xbeac3cce	-0.3364014
108	0xbf129abc	-0.57267356
109	0xbed59e08	-0.4172213
110	0x3f019584	0.5061877
111	0xbed0092b	-0.40631995
112	0x3e9230fa	0.2855299
113	0x3d545ed8	0.051848263
114	0x3f597046	0.8493694
115	0x3ee56088	0.4480021
116	0xbf647830	-0.8924589
117	0x3e58fa4e	0.21189234
118	0xbf08940a	-0.5335089
119	0xbf3563e1	-0.7085553
120	0xbe84a727	-0.25908777
121	0xbe7dfe50	-0.24804044
122	0x3d881c58	0.06646031
123	0x3f138303	0.57621783
124	0x3dc2ac77	0.09505551
125	0xbe931cbb	-0.28732857
126	0x3e346674	0.17617208
127	0xbe9cefcc	-0.306517
128	0x3e26fefc	0.16308206
129	0xbe454c98	-0.192675
130	0x3e07fb3d	0.13279434
131	0xbea4d851	-0.32196286
132	0x3edb4d06	0.42832202
133	0xbdc6dc54	-0.09709993
134	0xbf56c462	-0.83893406
135	0xbdd8aaec	-0.10579476
136	0x3e97c79c	0.29644477
137	0xbf1e2145	-0.61769515
138	0xbbc16efb	-0.0059031225
139	0xbe4d6b60	-0.20060492
140	0x3e3ceb92	0.18449238
141	0xbebae223	-0.36500654
142	0x3ebe86fd	0.37212363
143	0x3db6ba82	0.08922292
144	0x3e587ead	0.21142073
145	0x3f874db8	1.0570593
146	0x3d67fde1	0.056638602
147	0xbed3bed4	-0.41356528
148	0x3e1e4e71	0.1545961
149	0x3eda7c0c	0.42672765
150	0xbea1849e	-0.3154649
151	0x3eee6c31	0.46566918
152	0x3ddafc1b	0.106926166
153	0xbe63b6b0	-0.22237659
154	0xbe49e5ac	-0.19716519
155	0xbd38cd6d	-0.045117784
156	0xbf096aa9	-0.53678375
157	0xbea78755	-0.32720438
158	0xbea20a92	-0.3164869
159	0xbf0bf779	-0.5467449
160	0xbf35f265	-0.7107299
161	0x3e50bbf9	0.20384206
162	0x3ec12268	0.37721562
163	0x3ecb364c	0.39689863
164	0xbf398bd4	-0.72478986
165	0x3e621248	0.22077286
166	0xbcd67167	-0.026177121
167	0xbe33c0c2	-0.17554
168	0x3f13fbba	0.5780598
169	0xbd43f77f	-0.047843453
170	0x3f0d43c6	0.5518154
171	0x3f1c0b88	0.60955095
172	0xbdfef259	-0.12448568
173	0x3e0234f1	0.12715508
174	0xbed9df35	-0.42553106
175	0xbe6ba94f	-0.23013805
176	0x3f15b993	0.5848629
177	0xbf097c32	-0.5370513
178	0x3f28d1ef	0.65945333
179	0xbdcac0df	-0.099000685
180	0x3e923906	0.2855913
181	0x3e2d321e	0.1691365
182	0xbf119fee	-0.5688466
183	0x3e900f4e	0.28136677
184	0x3f2de361	0.6792508
185	0x3e763d51	0.24046828
186	0x3edfcec2	0.4371243
187	0xbe7d176e	-0.24715969
188	0x3f6345f3	0.8877861
189	0xbef04071	-0.46924165
190	0x3ef61136	0.48060006
191	0xbe80ce32	-0.25157315
192	0xbe74f717	-0.23922382
193	0x3e9c57c3	0.30535707
194	0x3dd33818	0.103134334
195	0xbebdaaf4	-0.3704449
196	0xbf30ea16	-0.69107187
197	0x3f05f714	0.52330136
198	0xbf01cfaf	-0.50707525
199	0xbdd6330b	-0.104589544
200	0xbead3e99	-0.3383682
201	0x3e61fd0b	0.22069184
202	0x3e536f84	0.20648009
203	0xbeda6771	-0.42657045
204	0xbf571e39	-0.8403049
205	0x3eef7934	0.46772158
206	0x3f773c4a	0.9657637
207	0xbe830c34	-0.25595248
208	0x3ec3ce35	0.3824326
209	0x3e9571fc	0.29188526
210	0x3ebf872d	0.37407818
211	0xbe64c1fb	-0.22339623
212	0xbfd812fd	-1.6880795
213	0xbe3ad706	-0.18246087
214	0x3ed45470	0.4147067
215	0xbf7ff42f	-0.9998197
216	0x3e910d05	0.28330246
217	0x3e0bbdad	0.13646574
218	0xbf61bfff	-0.8818359
219	0xbe9b402c	-0.30322397
220	0x3f0ba804	0.54553246
221	0x3f26bd76	0.65132844
222	0x3f760bfd	0.9611204
223	0xbf98df84	-1.1943212
224	0xbf237edd	-0.63865453
225	0xbf98b9ce	-1.1931703
226	0x3f45cd69	0.77266556
227	0x3e21cd41	0.15800954
228	0x3f2e7f7e	0.6816329
229	0xbf205bc4	-0.62640023
230	0x3e6168b8	0.22012603
231	0x3f0782c8	0.5293393
232	0xbd08e728	-0.033423573
233	0xbfa98e0f	-1.3246478
234	0x3d17a93e	0.037026636
235	0x3dfe23db	0.12409183
236	0xbf9a6bdd	-1.2064167
237	0xbf6d784d	-0.9276169
238	0xbe125221	-0.14289142
239	0x3f404a5c	0.75113463
240	0xbf728eb9	-0.9474903
241	0x3fa0bb6b	1.2557195
242	0xbe500030	-0.20312572
243	0xbe1e10bb	-0.1543607
244	0xbf3d79e1	-0.740141
245	0xbe83418f	-0.25635955
246	0x3f30dba0	0.6908512
247	0xbee81258	-0.45326495
248	0xbe25c250	-0.16187406
249	0xbfe59f65	-1.7939268
250	0xbf30c826	-0.690554
251	0xbf97833b	-1.1836923
252	0xbfaf342e	-1.3687799
253	0x3fa38add	1.2776753
254	0x3f648047	0.89258236
255	0x3edbb413	0.42910823

CNN_1D/Conv1D_1/conv1d f4 [28]
0	0x00000000	0.0
1	0x00000000	0.0
2	0x00000000	0.0
3	0x00000000	0.0
4	0x00000000	0.0
5	0x00000000	0.0
6	0x00000000	0.0
7	0x00000000	0.0
8	0x00000000	0.0
9	0x00000000	0.0
10	0x00000000	0.0
11	0x00000000	0.0
12	0x00000000	0.0
13	0x00000000	0.0
14	0x00000000	0.0
15	0x00000000	0.0
16	0x00000000	0.0
17	0x00000000	0.0
18	0x00000000	0.0
19	0x00000000	0.0
20	0x00000000	0.0
21	0x00000000	0.0
22	0x00000000	0.0
23	0x00000000	0.0
24	0x00000000	0.0
25	0x00000000	0.0
26	0x00000000	0.0
27	0x00000000	0.0

CNN_1D/Conv1D_1/conv1d1 f4 [28, 1, 7, 1]
0	0x3e9365dd	0.28788653
1	0xbf30db41	-0.69084555
2	0x3ecb7de4	0.39744484
3	0xbe3fbf74	-0.18725377
4	0xbdba7075	-0.09103481
5	0xbe82855f	-0.2549238
6	0xbe5eb6b9	-0.2174939
7	0xbe9c2e4b	-0.3050407
8	0x3eeeea66	0.46663207
9	0x3e34a424	0.1764074
10	0x3e8746df	0.26421258
11	0x3d6f23d1	0.058383767
12	0xbe99cf08	-0.30040765
13	0xbf3dd869	-0.7415834
14	0xbe888e23	-0.26670942
15	0x3cb74ee5	0.022376487
16	0x3e97cb6e	0.29647392
17	0xbe6420dc	-0.2227816
18	0xbe347ab1	-0.17624928
19	0x3e05e91b	0.13077204
20	0x3f1306c2	0.57432187
21	0x3ea3575f	0.31902596
22	0x3ebac338	0.36477065
23	0x3e556b99	0.20841826
24	0x3d76e860	0.060280204
25	0xbdfa7d7d	-0.12230966
26	0x3e1b5883	0.15170483
27	0xbe8823a0	-0.2658968
28	0x3c48ac69	0.012248137
29	0xbd2b8c1f	-0.041881677
30	0x3f115457	0.5676932
31	0x3d83d064	0.06436232
32	0xbed3ce0d	-0.41368142
33	0xbf49c337	-0.788135
34	0x3ee2baeb	0.44283232
35	0xbe32441d	-0.17408796
36	0xbe7f9929	-0.2496077
37	0xbe8c14d3	-0.27359638
38	0xbe94cb41	-0.2906132
39	0x3ece01cc	0.40235746
40	0x3e035ee5	0.12829168
41	0x3ef8b0f9	0.4857252
42	0xbed567da	-0.41680795
43	0x3d36b460	0.044605613
44	0xbe569092	-0.20953587
45	0x3f00e64a	0.50351393
46	0x3eab93ea	0.33511287
47	0xbedf5dd9	-0.43626288
48	0x3eb4c9ef	0.35310313
49	0x3eb212fa	0.34780103
50	0xbda171f6	-0.078830644
51	0xbeaab311	-0.33339742
52	0xbe3c890a	-0.18411651
53	0xbe122108	-0.14270413
54	0x3db260db	0.0870988
55	0x3f5a7de6	0.85348356
56	0xbddd36f4	-0.10801497
57	0x3f042f8b	0.51635045
58	0xbd565225	-0.052324433
59	0xbeec016c	-0.46094835
60	0x3e07e84c	0.13272208
61	0x3d6b3d1c	0.057431325
62	0x3e4b180f	0.19833396
63	0x3ecee181	0.4040642
64	0xbc92e8a0	-0.01793319
65	0xbe8fb3b3	-0.28066787
66	0x3e2eafef	0.17059301
67	0x3ce02975	0.027363518
68	0xbda88bd4	-0.08229795
69	0xbe451272	-0.19245318
70	0xbea76ee3	-0.32701787
71	0xbd5b7b09	-0.053584132
72	0x3eb53a78	0.3539617
73	0xbef43847	-0.47699186
74	0x3ee74d3e	0.4517612
75	0xbf0939fb	-0.53604096
76	0x3ddb3384	0.10703185
77	0xbedc5716	-0.4303519
78	0xbe575704	-0.21029288
79	0x3eafeecb	0.34361872
80	0xbc13d171	-0.009022103
81	0xbd718f2d	-0.058974434
82	0x3e4c2a28	0.19937956
83	0x3ec68ddf	0.38780114
84	0xbeddb460	-0.43301678
85	0x3f486049	0.7827192
86	0xbce6f1f9	-0.028191553
87	0x3d973ea1	0.073849924
88	0xbe9a6127	-0.30152246
89	0x3e8f9909	0.28046444
90	0xbe796380	-0.24354362
91	0x3ece8a66	0.40339965
92	0x3e944fe1	0.28967193
93	0xbde7411e	-0.11291717
94	0xbe6e6910	-0.23282266
95	0x3e81954c	0.25309217
96	0xbc2cdc8d	-0.01055063
97	0xbea51e3f	-0.32249638
98	0xbde60ff6	-0.11233513
99	0xbd666425	-0.05624785
100	0xbd9bf5b5	-0.07615224
101	0xbdc25b21	-0.09490038
102	0x3d1c4997	0.03815612
103	0xbda3c63d	-0.07996795
104	0xbdb74c9a	-0.089501575
105	0x3ecfce8d	0.40587273
106	0x3ea7efac	0.32800043
107	0x3e71650a	0.235737
108	0xbc1c0d1e	-0.009524612
109	0xbe678768	-0.22610247
110	0xbd88827e	-0.066655144
111	0xbe79308a	-0.24334922
112	0x3f0092c1	0.5022393
113	0x3ef1c134	0.47217715
114	0x3dce6893	0.1007854
115	0x3e4e34fc	0.201374
116	0xbe8d2c0e	-0.27572674
117	0xbe8ffb82	-0.28121573
118	0xbe5c95b5	-0.21541484
119	0xbf0022ff	-0.500534
120	0xbd82789c	-0.06370661
121	0x3ee45a9c	0.4460038
122	0xbe97f581	-0.29679492
123	0x3e7f7c94	0.24949867
124	0x3e98cb88	0.29842782
125	0x3e6d5cc1	0.23179914
126	0xbdca3085	-0.098725356
127	0xbe7d5c43	-0.24742226
128	0x3e3e0359	0.18555965
129	0xbdb596f8	-0.08866686
130	0x3f041bc8	0.5160489
131	0xbf4cea3b	-0.8004491
132	0xbe1a5a3c	-0.15073484
133	0x3ecef15f	0.40418527
134	0x3e65266f	0.22377943
135	0x3d9cc545	0.07654814
136	0x3eba7cd4	0.3642336
137	0xbd03fc6d	-0.032223154
138	0xbd86924a	-0.06570871
139	0x3e069727	0.13143598
140	0x3e2c9e5b	0.16857283
141	0x3ec1a2d5	0.37819543
142	0xbd10601e	-0.035247914
143	0x3cb3f5ba	0.021967757
144	0x3e0c375d	0.13692994
145	0xbe9848f8	-0.2974317
146	0x3e9140c8	0.28369737
147	0xbedc32ee	-0.43007606
148	0xbec3b9c1	-0.38227656
149	0x3dbb569d	0.091473795
150	0x3e80394f	0.25043723
151	0x3e818178	0.2529409
152	0x3eb5ec50	0.35531855
153	0x3e8caa44	0.27473652
154	0xbd3f0cab	-0.04664294
155	0x3f09976b	0.5374667
156	0x3e86424c	0.26222456
157	0xbd5128e3	-0.051064383
158	0xbca65b55	-0.020307222
159	0xbe87d8f3	-0.26532707
160	0x3ca5ca48	0.020238057
161	0x3e82dfe3	0.25561437
162	0xbe9c5e8c	-0.30540884
163	0x3e084207	0.13306437
164	0x3e2377a2	0.15963605
165	0xbefef4e2	-0.49796206
166	0x3e4c8ab6	0.19974789
167	0x3f3c347a	0.7351757
168	0x3ef3036f	0.47463557
169	0x3e3d70a5	0.18500002
170	0x3e3d6e0a	0.18499008
171	0xbede0614	-0.43364012
172	0xbe077f8a	-0.13232246
173	0x3e669f94	0.22521812
174	0xbe9f6c17	-0.31137154
175	0x3e59d6d2	0.21273354
176	0x3dfaa78b	0.122389875
177	0xbea9fce2	-0.33200747
178	0xbe623191	-0.2208922
179	0xbdacd038	-0.08438152
180	0x3ee603cc	0.44924772
181	0x3ef4acc3	0.47788057
182	0xbe8a429d	-0.27003947
183	0xbe8951a3	-0.26820096
184	0xbd25edfb	-0.04051016
185	0x3d964ee6	0.073392674
186	0xbd9dfa92	-0.07713808
187	0x3ec140f3	0.37744865
188	0x3f0710cf	0.5276002
189	0xbe9c679c	-0.30547798
190	0xbec84242	-0.3911305
191	0x3e6f8d42	0.2339373
192	0x3e2c5920	0.16830873
193	0x3ea40cc1	0.3204098
194	0xbf422881	-0.75843054
195	0x3d848b6d	0.06471906

CNN_1D/Conv1D_2/conv1d f4 [34]
0	0x00000000	0.0
1	0x00000000	0.0
2	0x00000000	0.0
3	0x00000000	0.0
4	0x00000000	0.0
5	0x00000000	0.0
6	0x00000000	0.0
7	0x00000000	0.0
8	0x00000000	0.0
9	0x00000000	0.0
10	0x00000000	0.0
11	0x00000000	0.0
12	0x00000000	0.0
13	0x00000000	0.0
14	0x00000000	0.0
15	0x00000000	0.0
16	0x00000000	0.0
17	0x00000000	0.0
18	0x00000000	0.0
19	0x00000000	0.0
20	0x00000000	0.0
21	0x00000000	0.0
22	0x00000000	0.0
23	0x00000000	0.0
24	0x00000000	0.0
25	0x00000000	0.0
26	0x00000000	0.0
27	0x00000000	0.0
28	0x00000000	0.0
29	0x00000000	0.0
30	0x00000000	0.0
31	0x00000000	0.0
32	0x00000000	0.0
33	0x00000000	0.0

CNN_1D/Conv1D_2/conv1d1 i1 [34, 1, 5, 28] scale=0.0022845673 zero_point=0
0	0x00	0.0
1	0x00	0.0
2	0x00	0.0
3	0x00	0.0
4	0x00	0.0
5	0x00	0.0
6	0x00	0.0
7	0x00	0.0
8	0x00	0.0
9	0x00	0.0
10	0x00	0.0
11	0x00	0.0
12	0x00	0.0
13	0x00	0.0
14	0x00	0.0
15	0x00	0.0
16	0x00	0.0
17	0x00	0.0
18	0x00	0.0
19	0x00	0.0
20	0x00	0.0
21	0x00	0.0
22	0x00	0.0
23	0x00	0.0
24	0x00	0.0
25	0x00	0.0
26	0x00	0.0
27	0x00	0.0
28	0x00	0.0
29	0x00	0.0
30	0x00	0.0
31	0x00	0.0
32	0x00	0.0
33	0x00	0.0
34	0x00	0.0
35	0x00	0.0
36	0x00	0.0
37	0x00	0.0
38	0x00	0.0
39	0x00	0.0
40	0x00	0.0
41	0x00	0.0
42	0x00	0.0
43	0x00	0.0
44	0x00	0.0
45	0x00	0.0
46	0x00	0.0
47	0x00	0.0
48	0x00	0.0
49	0x00	0.0
50	0x00	0.0
51	0x00	0.0
52	0x00	0.0
53	0x00	0.0
54	0x00	0.0
55	0x00	0.0
56	0x00	0.0
57	0x00	0.0
58	0x00	0.0
59	0x00	0.0
60	0x00	0.0
61	0x00	0.0
62	0x00	0.0
63	0x00	0.0
64	0x00	0.0
65	0x00	0.0
66	0x00	0.0
67	0x00	0.0
68	0x00	0.0
69	0x00	0.0
70	0x00	0.0
71	0x00	0.0
72	0x00	0.0
73	0x00	0.0
74	0x00	0.0
75	0x00	0.0
76	0x00	0.0
77	0x00	0.0
78	0x00	0.0
79	0x00	0.0
80	0x00	0.0
81	0x00	0.0
82	0x00	0.0
83	0x00	0.0
84	0x00	0.0
85	0x00	0.0
86	0x00	0.0
87	0x00	0.0
88	0x00	0.0
89	0x00	0.0
90	0x00	0.0
91	0x00	0.0
92	0x00	0.0
93	0x00	0.0
94	0x00	0.0
95	0x00	0.0
96	0x00	0.0
97	0x00	0.0
98	0x00	0.0
99	0x00	0.0
100	0x00	0.0
101	0x00	0.0
102	0x00	0.0
103	0x00	0.0
104	0x00	0.0
105	0x00	0.0
106	0x00	0.0
107	0x00	0.0
108	0x00	0.0
109	0x00	0.0
110	0x00	0.0
111	0x00	0.0
112	0x00	0.0
113	0x00	0.0
114	0x00	0.0
115	0x00	0.0
116	0x00	0.0
117	0x00	0.0
118	0x00	0.0
119	0x00	0.0
120	0x00	0.0
121	0x00	0.0
122	0x00	0.0
123	0x00	0.0
124	0x00	0.0
125	0x00	0.0
126	0x00	0.0
127	0x00	0.0
128	0x00	0.0
129	0x00	0.0
130	0x00	0.0
131	0x00	0.0
132	0x00	0.0
133	0x00	0.0
134	0x00	0.0
135	0x00	0.0
136	0x00	0.0
137	0x00	0.0
138	0x00	0.0
139	0x00	0.0
140	0x20	0.073106155
141	0xf1	-0.03426851
142	0x2d	0.10280553
143	0xf8	-0.018276539
144	0x15	0.047975913
145	0x1a	0.05939875
146	0x0e	0.03198394
147	0x29	0.09366726
148	0x02	0.0045691347
149	0xfb	-0.011422837
150	0x05	0.011422837
151	0x36	0.12336664
152	0xde	-0.07767529
153	0xf1	-0.03426851
154	0x00	0.0
155	0xf7	-0.020561107
156	0xe5	-0.06168332
157	0x24	0.082244426
158	0xf0	-0.036553077
159	0x1e	0.06853702
160	0x00	0.0
161	0x3b	0.13478947
162	0xf4	-0.027414808
163	0x41	0.14849688
164	0x09	0.020561107
165	0x1d	0.066252455
166	0x34	0.1187975
167	0x06	0.013707404
168	0x03	0.006853702
169	0x0a	0.022845674
170	0x0d	0.029699376
171	0x12	0.041122213
172	0xec	-0.04569135
173	0x07	0.01599197
174	0x09	0.020561107
175	0xf8	-0.018276539
176	0x32	0.11422837
177	0xeb	-0.047975913
178	0x1c	0.06396788
179	0x12	0.041122213
180	0x2d	0.10280553
181	0x06	0.013707404
182	0x00	0.0
183	0xfb	-0.011422837
184	0xda	-0.08681356
185	0x2b	0.0982364
186	0xf7	-0.020561107
187	0x0b	0.02513024
188	0x05	0.011422837
189	0x1f	0.07082159
190	0x10	0.036553077
191	0xfa	-0.013707404
192	0x05	0.011422837
193	0x15	0.047975913
194	0x17	0.05254505
195	0xf2	-0.03198394
196	0x11	0.038837645
197	0xff	-0.0022845673
198	0xe8	-0.054829616
199	0x11	0.038837645
200	0xc7	-0.13022034
201	0x03	0.006853702
202	0x07	0.01599197
203	0x00	0.0
204	0x11	0.038837645
205	0x24	0.082244426
206	0x21	0.07539072
207	0xe6	-0.05939875
208	0xef	-0.038837645
209	0x26	0.08681356
210	0x00	0.0
211	0x09	0.020561107
212	0x10	0.036553077
213	0x05	0.011422837
214	0x16	0.05026048
215	0x21	0.07539072
216	0x0a	0.022845674
217	0xf7	-0.020561107
218	0xf9	-0.01599197
219	0xe3	-0.066252455
220	0x0d	0.029699376
221	0xfc	-0.009138269
222	0xe2	-0.06853702
223	0x0c	0.027414808
224	0x28	0.0913827
225	0x39	0.13022034
226	0xcf	-0.1119438
227	0x15	0.047975913
228	0x14	0.04569135
229	0xd7	-0.09366726
230	0x0c	0.027414808
231	0xb5	-0.17134255
232	0xd4	-0.10052096
233	0x24	0.082244426
234	0x13	0.04340678
235	0xe8	-0.054829616
236	0x07	0.01599197
237	0x08	0.018276539
238	0x00	0.0
239	0x13	0.04340678
240	0x21	0.07539072
241	0xe9	-0.05254505
242	0x14	0.04569135
243	0x17	0.05254505
244	0xe6	-0.05939875
245	0xeb	-0.047975913
246	0xf2	-0.03198394
247	0xe0	-0.073106155
248	0x06	0.013707404
249	0xc3	-0.13935861
250	0xd1	-0.10737467
251	0x1e	0.06853702
252	0x1c	0.06396788
253	0x46	0.15991971
254	0xfd	-0.006853702
255	0x05	0.011422837

CNN_1D/Conv1D_3/conv1d f4 [56]
0	0x00000000	0.0
1	0x00000000	0.0
2	0x00000000	0.0
3	0x00000000	0.0
4	0x00000000	0.0
5	0x00000000	0.0
6	0x00000000	0.0
7	0x00000000	0.0
8	0x00000000	0.0
9	0x00000000	0.0
10	0x00000000	0.0
11	0x00000000	0.0
12	0x00000000	0.0
13	0x00000000	0.0
14	0x00000000	0.0
15	0x00000000	0.0
16	0x00000000	0.0
17	0x00000000	0.0
18	0x00000000	0.0
19	0x00000000	0.0
20	0x00000000	0.0
21	0x00000000	0.0
22	0x00000000	0.0
23	0x00000000	0.0
24	0x00000000	0.0
25	0x00000000	0.0
26	0x00000000	0.0
27	0x00000000	0.0
28	0x00000000	0.0
29	0x00000000	0.0
30	0x00000000	0.0
31	0x00000000	0.0
32	0x00000000	0.0
33	0x00000000	0.0
34	0x00000000	0.0
35	0x00000000	0.0
36	0x00000000	0.0
37	0x00000000	0.0
38	0x00000000	0.0
39	0x00000000	0.0
40	0x00000000	0.0
41	0x00000000	0.0
42	0x00000000	0.0
43	0x00000000	0.0
44	0x00000000	0.0
45	0x00000000	0.0
46	0x00000000	0.0
47	0x00000000	0.0
48	0x00000000	0.0
49	0x00000000	0.0
50	0x00000000	0.0
51	0x00000000	0.0
52	0x00000000	0.0
53	0x00000000	0.0
54	0x00000000	0.0
55	0x00000000	0.0

CNN_1D/Conv1D_3/conv1d1 i1 [56, 1, 3, 34] scale=0.0019769846 zero_point=0
0	0x00	0.0
1	0xe5	-0.053378582
2	0x0b	0.02174683
3	0x01	0.0019769846
4	0xd9	-0.0771024
5	0x00	0.0
6	0xfd	-0.0059309537
7	0x00	0.0
8	0xd3	-0.088964306
9	0x0c	0.023723815
10	0x01	0.0019769846
11	0x12	0.035585724
12	0x0f	0.029654767
13	0x25	0.07314843
14	0xfc	-0.007907938
15	0xfc	-0.007907938
16	0xe4	-0.055355567
17	0xdf	-0.06524049
18	0xd8	-0.07907938
19	0xec	-0.03953969
20	0xf4	-0.023723815
21	0xfa	-0.011861907
22	0xcd	-0.10082621
23	0xf1	-0.029654767
24	0xf8	-0.015815876
25	0xfe	-0.003953969
26	0xe1	-0.06128652
27	0x18	0.04744763
28	0x17	0.045470644
29	0x06	0.011861907
30	0x17	0.045470644
31	0xf4	-0.023723815
32	0xf9	-0.013838892
33	0xf7	-0.017792862
34	0x00	0.0
35	0xfd	-0.0059309537
36	0xfc	-0.007907938
37	0xfe	-0.003953969
38	0xf2	-0.027677784
39	0x00	0.0
40	0xf8	-0.015815876
41	0x00	0.0
42	0xe9	-0.045470644
43	0xed	-0.037562706
44	0x0d	0.0257008
45	0xe8	-0.04744763
46	0x09	0.017792862
47	0xeb	-0.041516677
48	0xf0	-0.031631753
49	0xf0	-0.031631753
50	0x14	0.03953969
51	0xda	-0.07512541
52	0xfc	-0.007907938
53	0x1c	0.055355567
54	0xeb	-0.041516677
55	0xfb	-0.009884923
56	0x15	0.041516677
57	0x2b	0.085010335
58	0x07	0.013838892
59	0x0b	0.02174683
60	0xe4	-0.055355567
61	0x19	0.049424615
62	0x26	0.07512541
63	0x08	0.015815876
64	0xfd	-0.0059309537
65	0x09	0.017792862
66	0xe6	-0.0514016
67	0xe5	-0.053378582
68	0x00	0.0
69	0xef	-0.03360874
70	0x03	0.0059309537
71	0xfc	-0.007907938
72	0x23	0.06919446
73	0x00	0.0
74	0x01	0.0019769846
75	0x00	0.0
76	0x9a	-0.20165242
77	0x16	0.04349366
78	0xfb	-0.009884923
79	0x1a	0.0514016
80	0xdd	-0.06919446
81	0x09	0.017792862
82	0x03	0.0059309537
83	0x06	0.011861907
84	0xdb	-0.07314843
85	0xe8	-0.04744763
86	0xf3	-0.0257008
87	0xe7	-0.049424615
88	0x0f	0.029654767
89	0xfb	-0.009884923
90	0xf7	-0.017792862
91	0xf1	-0.029654767
92	0xf5	-0.02174683
93	0xfb	-0.009884923
94	0xea	-0.04349366
95	0xfa	-0.011861907
96	0x06	0.011861907
97	0xd3	-0.088964306
98	0xf7	-0.017792862
99	0xdb	-0.07314843
100	0xf5	-0.02174683
101	0xe9	-0.045470644
102	0x00	0.0
103	0x0d	0.0257008
104	0x00	0.0
105	0x03	0.0059309537
106	0xed	-0.037562706
107	0x00	0.0
108	0xf8	-0.015815876
109	0x00	0.0
110	0x9c	-0.19769846
111	0xfd	-0.0059309537
112	0xf5	-0.02174683
113	0xf3	-0.0257008
114	0x0a	0.019769846
115	0x2c	0.08698732
116	0x17	0.045470644
117	0xff	-0.0019769846
118	0xc2	-0.12257304
119	0x13	0.037562706
120	0xf0	-0.031631753
121	0xcf	-0.09687224
122	0x1b	0.053378582
123	0x21	0.06524049
124	0x08	0.015815876
125	0x09	0.017792862
126	0xf3	-0.0257008
127	0xe6	-0.0514016
128	0xf7	-0.017792862
129	0x08	0.015815876
130	0xe2	-0.059309535
131	0x1a	0.0514016
132	0xf3	-0.0257008
133	0x22	0.06721748
134	0x0d	0.0257008
135	0xb9	-0.1403659
136	0x00	0.0
137	0xf3	-0.0257008
138	0xf6	-0.019769846
139	0xfd	-0.0059309537
140	0x2b	0.085010335
141	0x00	0.0
142	0x06	0.011861907
143	0x00	0.0
144	0x00	0.0
145	0x09	0.017792862
146	0xe7	-0.049424615
147	0x03	0.0059309537
148	0x07	0.013838892
149	0xfa	-0.011861907
150	0xe7	-0.049424615
151	0xd3	-0.088964306
152	0xfc	-0.007907938
153	0x0b	0.02174683
154	0xde	-0.06721748
155	0x07	0.013838892
156	0x11	0.03360874
157	0xe9	-0.045470644
158	0xde	-0.06721748
159	0xe7	-0.049424615
160	0x0b	0.02174683
161	0xff	-0.0019769846
162	0xf8	-0.015815876
163	0x04	0.007907938
164	0xf2	-0.027677784
165	0x0e	0.027677784
166	0x16	0.04349366
167	0xf8	-0.015815876
168	0x00	0.0
169	0xca	-0.106757164
170	0x00	0.0
171	0xba	-0.13838892
172	0xfe	-0.003953969
173	0x06	0.011861907
174	0x00	0.0
175	0x00	0.0
176	0xfe	-0.003953969
177	0x00	0.0
178	0xe4	-0.055355567
179	0x12	0.035585724
180	0x01	0.0019769846
181	0x17	0.045470644
182	0x25	0.07314843
183	0x10	0.031631753
184	0xd0	-0.09489526
185	0x21	0.06524049
186	0xfa	-0.011861907
187	0x05	0.009884923
188	0x02	0.003953969
189	0xea	-0.04349366
190	0x09	0.017792862
191	0x0c	0.023723815
192	0x11	0.03360874
193	0xed	-0.037562706
194	0x0f	0.029654767
195	0xfa	-0.011861907
196	0x12	0.035585724
197	0x07	0.013838892
198	0x12	0.035585724
199	0x1f	0.06128652
200	0x0f	0.029654767
201	0xed	-0.037562706
202	0x1b	0.053378582
203	0xef	-0.03360874
204	0x00	0.0
205	0xe6	-0.0514016
206	0x0b	0.02174683
207	0xfe	-0.003953969
208	0xf8	-0.015815876
209	0x00	0.0
210	0xed	-0.037562706
211	0x00	0.0
212	0xfe	-0.003953969
213	0xee	-0.035585724
214	0xdc	-0.07117145
215	0xcd	-0.10082621
216	0xec	-0.03953969
217	0xfd	-0.0059309537
218	0x02	0.003953969
219	0xfe	-0.003953969
220	0xfb	-0.009884923
221	0xe2	-0.059309535
222	0xea	-0.04349366
223	0x0b	0.02174683
224	0x14	0.03953969
225	0x02	0.003953969
226	0x05	0.009884923
227	0x15	0.041516677
228	0xfa	-0.011861907
229	0xe2	-0.059309535
230	0xeb	-0.041516677
231	0xd8	-0.07907938
232	0x10	0.031631753
233	0xdc	-0.07117145
234	0x14	0.03953969
235	0xf2	-0.027677784
236	0x0a	0.019769846
237	0xe3	-0.057332553
238	0x00	0.0
239	0x2b	0.085010335
240	0x04	0.007907938
241	0xfa	-0.011861907
242	0xea	-0.04349366
243	0x00	0.0
244	0xf0	-0.031631753
245	0x00	0.0
246	0x3a	0.114665106
247	0x07	0.013838892
248	0x08	0.015815876
249	0xfb	-0.009884923
250	0xe5	-0.053378582
251	0x26	0.07512541
252	0x02	0.003953969
253	0x2f	0.09291828
254	0x03	0.0059309537
255	0xd1	-0.09291828
